project/complier_test/complier_test/backend/fpga_complier/q_paras/conv_last.weight.npy (npy, 12128 bytes, 1 tensors)

array f4 [25, 120, 1, 1]
000000 96 25 4f be 04 9b de bc c6 dc 23 be 2e 81 b9 bd
       -0.20229182 -0.027173527 -0.16002187 -0.09057842
000010 b2 69 36 be 20 df 45 bc 3c 23 ad bd 2e 81 39 bd
       -0.17813757 -0.012077123 -0.08453986 -0.04528921
000020 20 df 45 bd 8e 54 55 be 35 52 33 3e 51 96 1a be
       -0.04830849 -0.20833036 0.17511828 -0.15096404
000030 ef 27 f1 3d c0 0b 2a 3e 58 67 14 bd 3c 23 2d 3d
       0.11775195 0.16606045 -0.03623137 0.04226993
000040 58 67 14 be 58 67 94 bd 20 df 45 3c 20 df 45 bd
       -0.14492548 -0.07246274 0.012077123 -0.04830849
000050 2e 81 39 bd 9c f6 48 be e8 56 f7 3c 20 df 45 bb
       -0.04528921 -0.19625324 0.030192807 -0.0030192807
000060 c6 dc 23 3e 12 3d d2 3d 04 9b 5e 3d 51 96 9a 3d
       0.16002187 0.102655545 0.054347053 0.07548202
000070 04 9b 5e 3d 43 f4 26 3e ea f1 04 be c0 0b 2a 3e
       0.054347053 0.16304116 -0.12982908 0.16606045
000080 43 f4 26 3e 66 09 08 3d e8 56 f7 3c 66 09 08 bd
       0.16304116 0.033212088 0.030192807 -0.033212088
000090 4a c5 20 be 20 df 45 3b 66 09 88 3d 2e 81 39 be
       -0.1570026 0.0030192807 0.066424176 -0.18115684
0000a0 58 67 94 3d 27 b0 3f be 04 9b 5e 3d c0 0b 2a 3e
       0.07246274 -0.1871954 0.054347053 0.16606045
0000b0 3c 23 ad bd 00 00 00 00 20 df 45 bc 66 09 08 bd
       -0.08453986 0.0 -0.012077123 -0.033212088
0000c0 20 df 45 bb 27 b0 bf bd b8 3a 30 3e 04 9b de 3d
       -0.0030192807 -0.0935977 0.172099 0.10869411
0000d0 3c 23 2d bd 27 b0 bf bd 35 52 33 be e8 56 f7 bc
       -0.04226993 -0.0935977 -0.17511828 -0.030192807
0000e0 8e 54 55 be 27 b0 3f 3e 3c 23 2d bd 4a c5 20 bd
       -0.20833036 0.1871954 -0.04226993 -0.03925065
0000f0 e8 56 f7 bc c6 dc 23 3e 4a c5 20 3d 3c 23 2d 3d
       -0.030192807 0.16002187 0.03925065 0.04226993
000100 3c 23 ad bc 04 9b 5e bd 96 25 4f be f6 f8 6a bd
       -0.021134965 -0.054347053 -0.20229182 -0.057366334
000110 fd c9 64 3e e8 56 77 bd ef 27 f1 3d 20 df c5 3b
       0.22342677 -0.060385615 0.11775195 0.0060385615
000120 27 b0 3f be 96 25 4f be 20 df 45 3b 5f 38 8e 3d
       -0.1871954 -0.20229182 0.0030192807 0.06944346
000130 20 df c5 3b 51 96 9a 3d 04 9b de 3c 66 09 88 3e
       0.0060385615 0.07548202 0.027173527 0.2656967
000140 58 67 14 bc 20 df c5 3c e8 56 f7 bc 35 52 33 3e
       -0.009057842 0.024154246 -0.030192807 0.17511828
000150 20 df 45 bd f6 f8 6a bd 35 52 33 be 0b 6c d8 3d
       -0.04830849 -0.057366334 -0.17511828 0.105674826
000160 58 67 14 bd c0 0b 2a 3e 3c 23 ad 3c ef 27 f1 3d
       -0.03623137 0.16606045 0.021134965 0.11775195
000170 20 df 45 3c 66 09 08 3e e1 85 fd 3d 8c 39 9f 3e
       0.012077123 0.13284835 0.12379051 0.31098592
000180 88 83 5b 3e 66 09 08 be 43 f4 a6 3d 72 10 6e be
       0.21436894 -0.13284835 0.08152058 -0.23248461
000190 27 b0 bf bd 6d da 81 bd 51 96 9a 3d 85 68 a5 3e
       -0.0935977 -0.063404895 0.07548202 0.32306305
0001a0 00 00 00 00 0b 6c d8 bd 58 67 94 bc ef 27 f1 3d
       0.0 -0.105674826 -0.018115684 0.11775195
0001b0 ea f1 04 be 12 3d d2 bd 62 53 c4 3e 3c 23 2d 3e
       -0.12982908 -0.102655545 0.38344866 0.16907972
0001c0 7a e1 67 3e 12 3d 52 3d e8 56 f7 bd 51 96 9a bd
       0.22644606 0.051327772 -0.12077123 -0.07548202
0001d0 35 52 b3 bd 64 6e 7a 3e e8 56 77 bc e8 56 77 bc
       -0.08755914 0.24456173 -0.015096404 -0.015096404
0001e0 ff 40 9c bd 33 81 3b bd f0 e0 12 3e 89 a1 70 3e
       -0.076295845 -0.04577751 0.1434362 0.23499121
0001f0 14 c1 28 be 99 01 7a 3c 70 01 e1 3c 99 01 7a bd
       -0.16479903 0.01525917 0.027466506 -0.06103668
000200 f5 00 16 bd f5 00 96 bd 5b 81 54 bd 1e 01 2f bd
       -0.036622006 -0.07324401 -0.051881175 -0.042725675
000210 70 01 e1 bc e1 80 09 3d 1e 01 af 3d 1e 01 af bd
       -0.027466506 0.033570174 0.08545135 -0.08545135
000220 33 81 bb bd 70 01 e1 3c f8 90 97 be d1 20 80 be
       -0.09155502 0.027466506 -0.2960279 -0.25025037
000230 47 01 48 3d 14 c1 28 3e 1e 01 af 3d 0a 81 22 be
       0.048829343 0.16479903 0.08545135 -0.15869537
000240 44 71 c6 3e 47 01 48 3d 3d c1 c1 3d d7 40 83 3d
       0.3875829 0.048829343 0.094606854 0.064088516
000250 1e 01 af be eb c0 8f 3d 47 01 48 bb d9 d0 84 3e
       -0.3418054 0.07019218 -0.003051834 0.25940588
000260 99 01 7a bc 99 01 7a 3d f5 00 16 bd e1 80 09 3d
       -0.01525917 0.06103668 -0.036622006 0.033570174
000270 33 81 3b bd 0f a1 25 be eb c0 0f be 70 01 e1 bd
       -0.04577751 -0.1617472 -0.14038436 -0.10986602
000280 f5 00 96 bc 89 a1 70 3e 84 81 ed bd d1 20 00 be
       -0.018311003 0.23499121 -0.11596969 -0.12512518
000290 84 81 ed bd 14 c1 a8 bd 47 01 48 3c f5 00 96 bc
       -0.11596969 -0.08239952 0.012207336 -0.018311003
0002a0 fa 20 19 3e 47 01 48 bb 28 41 b5 3d 75 21 64 be
       0.14953986 -0.003051834 0.08850318 -0.22278388
0002b0 f5 00 16 bd 1e 01 af bc e1 80 09 bd 47 01 48 3c
       -0.036622006 -0.021362837 -0.033570174 0.012207336
0002c0 33 81 bb bd 5b 81 54 3d ff 40 9c bd 0f a1 25 3e
       -0.09155502 0.051881175 -0.076295845 0.1617472
0002d0 8f c1 f3 bd 47 01 48 bd 51 41 ce bd d1 20 80 3e
       -0.11902153 -0.048829343 -0.10071052 0.25025037
0002e0 89 a1 70 be 8f c1 f3 bd 0a 81 a2 3d 1e 01 2f bd
       -0.23499121 -0.11902153 0.079347685 -0.042725675
0002f0 47 01 48 bb f5 00 16 3c 33 81 bb bd 84 81 ed bd
       -0.003051834 0.009155502 -0.09155502 -0.11596969
000300 dc 60 06 be 99 01 7a 3d 51 41 ce 3d e1 80 09 3e
       -0.13122886 0.06103668 0.10071052 0.1342807
000310 19 e1 2b be 28 41 b5 bd 1e 01 af bc 47 01 48 3c
       -0.16785087 -0.08850318 -0.021362837 0.012207336
000320 3d c1 41 3e 47 01 48 3b 47 01 48 3c 8f c1 f3 3d
       0.18921371 0.003051834 0.012207336 0.11902153
000330 94 e1 76 3e 47 01 48 3c f5 00 16 3d 28 41 35 3e
       0.24109489 0.012207336 0.036622006 0.17700636
000340 f5 00 16 be 0a 81 22 3d 47 01 c8 3c 28 41 b5 bd
       -0.14648803 0.039673842 0.024414672 -0.08850318
000350 38 a1 3e be 70 01 e1 3d 4c 21 4b 3e e6 a0 0c 3e
       -0.18616188 0.10986602 0.1983692 0.13733253
000360 d1 20 00 3e 47 01 48 3d f5 00 16 bd 1e 01 2f 3e
       0.12512518 0.048829343 -0.036622006 0.1709027
000370 d1 20 00 be 47 01 c8 bb 99 01 7a bc 47 01 c8 3b
       -0.12512518 -0.006103668 -0.01525917 0.006103668
000380 84 81 6d bd 1e 01 af bc 33 81 bb bd 51 41 ce bd
       -0.057984844 -0.021362837 -0.09155502 -0.10071052
000390 23 21 32 3e 7a 41 e7 bd 70 01 61 3d 84 81 6d bd
       0.17395453 -0.112917855 0.05493301 -0.057984844
0003a0 14 c1 a8 bd f5 00 96 bc 70 01 e1 bc 51 41 ce 3d
       -0.08239952 -0.018311003 -0.027466506 0.10071052
0003b0 70 01 61 bd 05 61 1f be 1c 71 ad be 14 c1 a8 3d
       -0.05493301 -0.15564354 -0.33875358 0.08239952
0003c0 fc 53 bd bd 19 c3 83 3e 7f 61 eb 3d 34 dc a8 3d
       -0.092445344 0.25734785 0.11493205 0.082451254
0003d0 9b 25 61 3d d2 ad cc bd 96 0a 85 bd 9d 7b 82 3e
       0.054967504 -0.09994091 -0.0649616 0.25484934
0003e0 63 9d f5 bc d2 ad cc 3d 63 9d 75 3c 73 d5 11 be
       -0.029982274 0.09994091 0.014991137 -0.1424158
0003f0 9d 7b 02 be 6c 64 94 bd fc 53 3d 3e d2 ad 4c bd
       -0.12742467 -0.072457165 0.18489069 -0.049970455
