project/complier_test/complier_test/backend/fpga_complier/q_paras/conv_0.convs.0.weight.npy (npy, 416 bytes, 1 tensors)

array f4 [8, 1, 3, 3]
0	0x413d1801	11.81836
1	0x408eefe0	4.4667816
2	0x40ee3a76	7.4446363
3	0xc1195c09	-9.5849695
4	0xc091ea35	-4.5598397
5	0xbfa6c286	-1.3028114
6	0xbfee3a76	-1.8611591
7	0x408eefe0	4.4667816
8	0x40507327	3.2570283
9	0x41061456	8.379965
10	0x416dfdb2	14.874437
11	0x40bbb612	5.8659754
12	0x41aca095	21.57841
13	0x407ec03d	3.9804833
14	0xc174b1ea	-15.293436
15	0xc0137cc5	-2.3044903
16	0x41896e72	17.178928
17	0x41d4d9e2	26.606388
18	0x4176b332	15.418749
19	0x40499ab3	3.150067
20	0x412c6cbb	10.776546
21	0xc1a87219	-21.055712
22	0xc0a9c5a4	-5.305376
23	0x41518ff6	13.097647
24	0xc109f095	-8.621236
25	0x40a47777	5.139583
26	0xc054370d	-3.31586
27	0x413c3b9e	11.764555
28	0x40fd52a0	7.916336
29	0xc036f490	-2.858677
30	0xc0cc10c8	-6.3770485
31	0x412c6674	10.775013
32	0xc1612d00	-14.073486
33	0x4028e1c0	2.6387787
34	0xc0b6f490	-5.717354
35	0x4146c9ba	12.42425
36	0x41ab1cc8	21.389053
37	0x40bd328e	5.912421
38	0xbf5e95d5	-0.86947376
39	0x417d30d5	15.824422
40	0xc0963ebc	-4.695158
41	0x4150ac77	13.042106
42	0xc03d328e	-2.9562106
43	0x4102c4d3	8.173053
44	0xc1b21177	-22.258528
45	0xbf116120	-0.56788826
46	0xc05e1b80	-3.4704285
47	0xc05607e2	-3.3442311
48	0x40d1fe12	6.5622644
49	0xc10139e4	-8.076633
50	0xbf8139e4	-1.0095792
51	0x3f724c8c	0.9464805
52	0x401974bf	2.3977506
53	0xc09974bf	-4.795501
54	0xc0d20c64	-6.5640125
55	0x410187a4	8.095615
56	0x40fc0edf	7.8768153
57	0x3fa809ea	1.3128026
58	0x40440b91	3.063206
59	0x3fa809ea	1.3128026
60	0xc07c0edf	-3.9384077
61	0xc0cb0bfb	-6.3452125
62	0x41de4d1e	27.787655
63	0xc09b0b28	-4.845112
64	0x4187a9c3	16.957891
65	0x4010b514	2.2610521
66	0xc010b514	-2.2610521
67	0xc01b0b28	-2.422556
68	0xc0e365b2	-7.106164
69	0xc0d3e495	-6.621653
70	0xc1a5613c	-20.672478
71	0xc115e01e	-9.367216
