project/complier_test/complier_test/backend/fpga_complier/q_paras/conv_12.convs.0.bias.npy (npy, 416 bytes, 1 tensors)

array f4 [72]
00000000: db20 66be e782 ec3e 625d 943c abf3 b43e
00000010: 4b2c e7be 6e58 73bb c75b 8f3e 6fa8 58bf
00000020: 1106 333e 1b3c 6a3f da34 673e e185 723e
00000030: 0e6d 0bbf 9398 db3d 39f7 45be e5b0 773d
00000040: a5f5 94be d76e 08bf a598 0abe 48f3 2b3e
00000050: 1c81 593d 6b84 1dbf e747 f33d 4412 c93e
00000060: 3aa8 ecbe 1f29 ccbe 8c6b 99be f0b8 5f3f
00000070: e21c 153f a02e c23e b1ed 82bf 5051 d93e
00000080: 63f8 0fbf fedf 433e 913a 2ebe 7f1f 16be
00000090: 9dfe 783e d43a 833e 74ef 0b3f bc5c 5fbe
000000a0: c422 f13d 9d68 943e aae0 91bd 664c cd3d
000000b0: 42dc efbd 5021 83be 8a6d a93e eab3 21be
000000c0: ba40 783f 8885 473d f51b 04bf e1d6 773e
000000d0: 2006 3a3f eaf1 243e f69a ab3e b05f a73e
000000e0: 3dc5 0b3d b3ab ce3e 01e2 f83e 4f2c 1e3d
000000f0: c9d0 493e 4d78 c93d 26f5 0bbe 8d69 10bf
00000100: 976b c93e fc78 18bf 9d9e b53d fbc9 a7bd
00000110: e64f 893e d24e 1b3f e27a b23d 10ba 323f
-0.22473471 0.4619362 0.018110935 0.35342154 -0.4515098 -0.0037131566 0.27999708 -0.8463201
0.17482783 0.91497964 0.22578755 0.23683883 -0.5446328 0.107224606 -0.19332589 0.060471434
-0.29093662 -0.5329413 -0.13534792 0.16792023 0.053101644 -0.6153018 0.11878949 0.39271748
-0.46222097 -0.39875123 -0.29964864 0.8739157 0.58247197 0.37926197 -1.0228788 0.4244485
-0.56238383 0.19128415 -0.17014529 -0.14660452 0.24315877 0.2563082 0.5466225 -0.21812719
0.11774209 0.28986064 -0.071229294 0.100243375 -0.11711933 -0.25611353 0.33091384 -0.15791288
0.96973765 0.04871133 -0.5160516 0.24203064 0.72665596 0.16107908 0.33516663 0.3269019
0.034123648 0.4036537 0.48609927 0.038616475 0.19708551 0.09837399 -0.13667735 -0.5641106
0.39339897 -0.5955961 0.08868144 -0.081928216 0.2681877 0.60667145 0.08714844 0.6981516
