project/complier_test/complier_test/backend/fpga_complier/paras/bn5_bias.npy (npy, 1152 bytes, 1 tensors)

array f4 [256]
-7.079186e-05 5.5425025e-05 -0.00010699705 0.0008437437 8.187969e-06 2.091413e-05 -6.215476e-05 0.00014742078
6.676061e-05 -5.7553825e-06 0.0004835484 4.8594473e-05 -9.031924e-05 -0.00034840583 0.00017528888 0.0001580141
-1.0856569e-05 -0.0004172654 1.6431097e-05 -5.123647e-05 0.00022965574 2.493569e-05 -1.9021958e-05 0.00017676604
0.00019910527 0.00015164871 2.2182934e-05 -3.0500041e-05 -3.3703553e-05 -0.00016939112 -0.00018171329 5.3198124e-05
0.000112315916 -5.203454e-05 7.838533e-05 3.8447586e-05 0.00066217297 -0.00016658298 0.0001388961 -0.000113203285
-2.2256301e-05 0.00017395073 -0.0001183636 -0.00020170453 0.00015665035 -0.0003146967 8.014142e-05 -7.808151e-07
5.5695946e-06 0.00015170225 -0.00017069199 -8.8615794e-05 0.00015937371 6.0806167e-05 -9.135861e-05 -0.0001197527
-2.6476851e-05 1.4633809e-05 0.00036387873 -7.325935e-06 8.006425e-05 0.00010617921 -9.403579e-05 0.00012776372
0.000124564 -0.00011859648 -0.00013920052 0.00084987143 0.00027727342 -0.00015887897 0.00030074836 -0.00019372201
3.447463e-05 0.00015124021 0.0005402681 -6.484599e-05 5.971477e-05 -4.633596e-05 0.00011389262 0.00017812684
0.00045306457 -4.5186698e-05 0.00013700851 2.8402721e-05 0.00035260202 0.000117216056 -5.102361e-05 -0.00022450574
-0.00020756647 2.0240639e-05 0.00029089148 -4.7315276e-05 -0.0002572888 0.00015794655 -2.4386949e-05 -9.15456e-05
-5.3176027e-05 0.00013783699 0.00015252612 0.0003299276 0.00011172152 0.00015109299 0.00020432932 -6.629773e-05
-0.00026817777 -0.0001794679 0.0004187444 -0.00061655865 -0.00027241773 -0.00024381097 -0.00014835481 -7.874185e-05
0.0001270643 -0.000372304 -0.0001085384 0.00032285752 -8.0961945e-05 -0.00019968017 -0.00029968572 0.00039453054
-0.00021817177 0.0005122202 -6.549704e-05 -9.446884e-05 -0.00011954433 -6.454036e-05 -4.060743e-05 0.0004679017
0.00012698343 3.500176e-05 3.3555356e-05 0.00015215726 -2.3172528e-05 0.00021866192 -8.151081e-05 0.00044843476
2.6367075e-05 -0.00019505166 0.00070579944 -1.8544888e-05 3.8115264e-05 -7.2300456e-05 -0.00013309288 0.00059741247
0.0002972142 2.5365895e-05 0.0004628486 8.251047e-05 -9.0772664e-05 -0.00017273823 0.00020521114 0.00023273566
-0.0002735936 3.5883706e-05 0.00012920423 1.1125476e-06 -0.00017155902 -0.00026763958 -4.378148e-05 -0.00030024175
-0.00010386153 -0.00022445209 0.00014165849 0.0001222447 -3.1085077e-05 6.796356e-06 -5.9803383e-06 -0.00033068197
-0.00015669705 -2.7526148e-05 -3.331024e-05 -0.00013581911 -4.7203957e-05 -0.00015882317 -6.6303925e-05 -4.1021667e-05
5.118825e-05 -0.0001736372 0.0008028962 0.00021837043 -0.0003252095 0.00040919735 0.0003489563 -0.0006108146
-0.00023916247 4.3229214e-05 0.00033546888 -9.1873546e-05 0.00011718937 0.00018357062 4.0628907e-05 3.7186295e-05
-7.531224e-05 -2.7441947e-05 -0.00012575796 1.3876202e-05 6.6197135e-05 -3.2888238e-05 5.9063605e-05 -0.00016393725
0.00031589353 0.00010632504 -0.00022109761 -0.00025142694 -5.010844e-05 -0.00016015487 0.00017244375 0.00014184827
-1.6407616e-06 0.00013741446 -7.7287514e-05 -6.2388106e-05 0.00027143225 7.579884e-05 -4.239647e-05 -0.00020134165
-3.174762e-06 -0.00016650105 8.3460305e-05 -7.21966e-06 0.00095293793 0.00011335364 0.00011126708 -0.00010138341
-5.798359e-05 -0.0001379999 -3.085931e-05 5.5390705e-05 -0.0003008492 -5.3882628e-05 -6.35464e-05 0.00013209978
0.0004501514 -7.45844e-05 -0.00023329105 -0.00018360488 0.00019655959 -0.00018322543 -8.4786065e-05 -0.0001486826
-2.759474e-05 -0.00026662118 0.0001235076 3.982425e-05 -7.2022485e-05 -0.00029325875 -0.00018426798 -2.5186288e-05
-0.00031141881 0.00015328439 5.2693205e-05 -0.00028183093 0.0001769457 0.00037089383 -9.770524e-05 -8.7535685e-05
00000000: 1776 94b8 2b78 6838 9b63 e0b8 ae2e 5d3a
00000010: 0f5f 0937 c170 af37 1559 82b8 f794 1a39
00000020: d401 8c38 5c1e c1b6 c584 fd39 ebd1 4b38
00000030: c669 bdb8 3daa b6b9 c0cd 3739 96b0 2539
00000040: 9c24 36b7 6ac4 dab9 83d5 8937 bee6 56b8
00000050: becf 7039 fd2c d137 5891 9fb7 465a 3939
00000060: eac6 5039 e403 1f39 7d15 ba37 57da ffb7
00000070: ea5c 0db8 959e 31b9 4a8a 3eb9 0d21 5f38
00000080: 268b eb38 a93f 5ab8 ce62 a438 c842 2138
00000090: ad95 2d3a c7ac 2eb9 a3a4 1139 8d67 edb8
000000a0: 0bb3 bab7 8b66 3639 f939 f8b8 a680 53b9
000000b0: 8242 2439 e0fd a4b9 9911 a838 3599 51b5
000000c0: 74e2 ba36 4312 1f39 c8fb 32b9 3ed7 b9b8
000000d0: 8e1d 2739 200a 7f38 c897 bfb8 be23 fbb8
000000e0: 9b1a deb7 bb83 7537 fac6 be39 4dd1 f5b6
000000f0: 2be8 a738 88ac de38 1535 c5b8 50f8 0539
00000100: 659d 0239 00b7 f8b8 5bf6 11b9 e8c9 5e3a
00000110: 025f 9139 c098 26b9 c3ad 9d39 db21 4bb9
00000120: da98 1038 3c96 1e39 c7a0 0d3a edfd 87b8
00000130: 3f76 7a38 dc58 42b8 a3d9 ee38 8fc7 3a39
00000140: 4c89 ed39 d986 3db8 f1a9 0f39 6142 ee37
00000150: 71dd b839 e4d1 f538 2f02 56b8 4d69 6bb9
00000160: 33a6 59b9 71ca a937 cb82 9839 6474 46b8
00000170: b8e4 86b9 749e 2539 9392 ccb7 2bfc bfb8
00000180: 5309 5fb8 5688 1039 6bef 1f39 22fa ac39
00000190: 094c ea38 b76e 1e39 3c41 5639 5309 8bb8
000001a0: 369a 8cb9 8c2f 3cb9 ec8a db39 8da0 21ba
000001b0: 4ad3 8eb9 82a7 7fb9 b18f 1bb9 3522 a5b8
000001c0: 903c 0539 cc31 c3b9 1c9f e3b8 3445 a939
000001d0: 1dca a9b8 3d61 51b9 231f 9db9 fed8 ce39
000001e0: 0ac5 64b9 8446 063a 755b 89b8 931d c6b8
000001f0: e0b3 fab8 d859 87b8 e551 2ab8 b450 f539
00000200: db26 0539 dbce 1238 cabd 0c38 678c 1f39
00000210: a062 c2b7 9d48 6539 c8f0 aab8 e51b eb39
00000220: dd2e dd37 c886 4cb9 6605 393a d890 9bb7
00000230: f4dd 1f38 03a0 97b8 d98e 0bb9 ac9b 1c3a
00000240: 6ad3 9b39 d8c8 d437 7daa f239 7909 ad38
00000250: 345d beb8 1121 35b9 f22d 5739 810a 7439
00000260: 1d71 8fb9 d681 1638 ff7a 0739 d852 9535
00000270: 86e4 33b9 fa51 8cb9 02a2 37b8 c469 9db9
00000280: 3cd0 d9b8 e65a 6bb9 298a 1439 d02e 0039
00000290: 5961 02b8 410c e436 b7aa c8b6 625f adb9
000002a0: 0b4f 24b9 f4e7 e6b7 99b6 0bb8 aa6a 0eb9
000002b0: ddfc 45b8 c589 26b9 a60c 8bb8 ae0e 2cb8
000002c0: f7b2 5638 6212 36b9 7479 523a 5efa 6439
000002d0: e180 aab9 8a89 d639 1ff4 b639 131f 20ba
000002e0: b0c7 7ab9 0451 3538 dfe1 af39 3cac c0b8
000002f0: 90c3 f538 dd7c 4039 f568 2a38 7bf8 1b38
00000300: f3f0 9db8 2233 e6b7 e5dd 03b9 d5cd 6837
00000310: 51d3 8a38 7af1 09b8 10bb 7738 92e6 2bb9
00000320: 839e a539 d2fa de38 70d6 67b9 f4d1 83b9
00000330: 872b 52b8 3fef 27b9 04d2 3439 1bbd 1439
00000340: 2438 dcb5 ea16 1039 6b15 a2b8 5cd6 82b8
00000350: 054f 8e39 31f6 9e38 ddd2 31b8 3d1f 53b9
00000360: ff0d 55b6 c996 2eb9 6907 af38 6840 f2b6
00000370: 95ce 793a 46b8 ed38 0f58 e938 ce9d d4b8
00000380: 6833 73b8 11b4 10b9 ef6e 01b8 5153 6838
00000390: 4cbb 9db9 0800 62b8 3744 85b8 4484 0a39
000003a0: 4c02 ec39 326a 9cb8 979f 74b9 0f86 40b9
000003b0: 901b 4e39 3420 40b9 2ccf b1b8 aee7 1bb9
000003c0: 417b e7b7 4ac9 8bb9 d281 0139 f608 2738
000003d0: c70a 97b8 86c0 99b9 0f38 41b9 2447 d3b7
000003e0: ed45 a3b9 f7ba 2039 e602 5d38 b5c2 93b9
000003f0: 808a 3939 8774 c239 1ae7 ccb8 5d93 b7b8
