project/complier_test/complier_test/backend/fpga_complier/paras/conv_2_weights.npy (npy, 73856 bytes, 1 tensors)

array f4 [3, 3, 32, 64]
00000000: a385 dcbc 4c35 7a3d 4674 013d c728 03be
00000010: 0ac1 e1bd 0f1b 1dbe 4101 903d 6226 b13d
00000020: 78b9 94bd a30c bbbd aa31 07bd 078a 343c
00000030: dde8 2ebd 5bcc ad3d f2bf 223e 6c54 c33c
00000040: e4cc 23be 2029 863c 39fa 9c3d 97c9 ceb8
00000050: 2085 33bb 6263 5d3e 599e 0e3e df9c 47bc
00000060: 5ba8 32bd d78f b8bd 70f9 bfbd dabc 163e
00000070: ebb8 c13b caf0 173d 8819 853d 3b09 d23a
00000080: 072d af3d 56fb 913c 11c4 793d a7cf a33d
00000090: 09bf 07bd 535d dfbd 0aff edbc 3ed6 2e3e
000000a0: 1c4a 983d 715f 9c3d e9f4 e93c 1f10 cbbc
000000b0: 2930 b33d 34ee d33c b58f 2f3e c683 ac3c
000000c0: 4ee2 6d3d 9c06 e8bd 9212 80bd 4ef2 203e
000000d0: 416f 7bbd 2ba7 893d 00b4 4c3a 7681 1fbd
000000e0: b776 33bc 768b 9ebc 2561 fc3d 9ba2 143c
000000f0: 9ce6 ed3d e235 113b 4a0b 0bbe 04a6 ab3d
00000100: c582 983e 6167 d5bc cd3e 32be 4634 203e
00000110: 8fdc 893d 333e e8bc 0e82 a23c 9da8 573b
00000120: c150 4bbd c5ca 403c a99e a43d 6f5e 08be
00000130: 197f 97bd 32b5 a53d 1e8e 86bd 09e9 13bd
00000140: b4d6 05be 5dfb 79bd 8f31 a4bd 31b7 89bc
00000150: b43c 42bd 00c4 e4bd 9aa6 88bc b6be 0d3d
00000160: 1967 8cbd 0a4f f73d fd2d 0fbe 287b 6fbd
00000170: 8c91 d0bd 47c7 9abd fada a23c e04d 353b
00000180: ef84 fe3d f4ad ce3c a1ba 28be 9316 8e3c
00000190: 684f 1fbe a0b7 e73d 9425 053d 4544 173d
000001a0: 93c2 be3d 592b bd3c f0bd bc3c 74fb f2bd
000001b0: fb38 423d 0921 b33d c7ae 10be 335f 773d
000001c0: 7f01 04be 0a7c 073e 33b1 9cbb 13e4 1bbe
000001d0: 40ea 32bd 8296 2cbd 584b 9abd 96e5 f2bc
000001e0: a8e7 bb3c 36d1 9dbc 472d 6a3d 4a33 d03d
000001f0: 4a48 fabd d268 a5bd d5aa 23bd 1374 e53d
00000200: 3cb2 8b3d 6336 283d 56e2 053e f1a9 8abd
00000210: a7b3 38bc e966 fb3d 8966 913d c94b cdbd
00000220: e25d f23b 1772 70bd 0b33 123e cac3 253e
00000230: a2ed 593d 1bb4 073e 8068 e1bd 763b aa3b
00000240: 49aa 3cbe 57f0 2d3b e254 233c 53ca adbc
00000250: 0c99 243e fb57 7c3d 90a6 fb3c 4d8f ed3d
00000260: 4d4c de3d d7a1 9bbd 5f3a c2bd 07d6 583d
00000270: 6e02 a8bc 053b 1bbd 3906 2d3d 61b1 e5bc
00000280: 55a5 5fbc 6a6a 00bb 2997 253e 71dd 5dbd
00000290: 95cc ecbd ccbb 68bd ecf3 9b3d 8db8 19be
000002a0: 8935 d23c f963 0f3b ba8f 96bd d1ab ecbd
000002b0: bf8f 25bd d4d4 ec3b be6e 363d 21e6 763d
000002c0: ac34 a13d a3d1 29bc 18a2 98bc 7e4f d6bd
000002d0: a34c 8a3d bf81 f53d f42e 7e3d 77cb 63bd
000002e0: d239 973d 0a74 973d b54c 84bd 50fe f23c
000002f0: 3f32 8d3d d6b5 e13d 527c b53c 9f97 d7bd
00000300: 2c78 3bbd ac1f 03bd 63fc 1cbd 4e75 ca3d
00000310: 21ea 6fbc 7c05 cabb 11bb 0dbc 6d6b a43b
00000320: bdd3 98bc 2343 fd3c 2df3 6dbd 8183 d13d
00000330: e413 c8bc 10e8 483d e961 3b3d 44e9 b0bd
00000340: b42b 48be 5312 04bd 649e 28be 1653 3e3c
00000350: b6db 863d b9ae 1a3d cd74 a4bc 1f1f 533d
00000360: 2579 babd 47d0 f5bc 1e22 963d 0044 2abd
00000370: 412f b1bd 8df1 63bc 8c93 b7bd 41a9 28bc
00000380: fbe4 363d f84d 173d 68e2 5abe aaf9 bb3b
00000390: 325c 2bbd 0f96 1abd a102 7a3c 59f1 0dbc
000003a0: 36c5 13bc 3ea0 da3c 3362 c1bd b58a df3b
000003b0: 513d 6a3e 5639 b8bd aa17 11be 8cc4 143c
000003c0: b6f8 e93d c3c5 283c d7be f0bc b8e7 97bd
000003d0: 075e 73bd a187 a53c aff2 573d f836 b13d
000003e0: faee c23c c3e9 8d3c 8f07 88bd de51 85bd
000003f0: d13d b4bd c0b8 fabd 7078 fa3b 9a26 683d
-0.026919192 0.061085984 0.031605028 -0.12808524 -0.110231474 -0.15342353 0.07031489 0.08649899
-0.07261938 -0.0913327 -0.033006348 0.011019236 -0.042702544 0.08486243 0.15893534 0.023843966
-0.15996128 0.016377032 0.07664914 -9.8603945e-05 -0.002739258 0.21619943 0.13927592 -0.012183397
-0.043617588 -0.0901181 -0.09373748 0.14720479 0.0059119365 0.03709487 0.0649901 0.0016024479
0.0855351 0.017820042 0.060978 0.07998591 -0.03314117 -0.10906472 -0.029052276 0.17073914
0.0743601 0.076353915 0.028559165 -0.02478796 0.0874942 0.02587042 0.17144664 0.021058928
0.05807715 -0.11329386 -0.06253542 0.15717432 -0.061385397 0.06721338 0.00078088045 -0.038941823
-0.010953597 -0.01935361 0.12323216 0.009071971 0.11616251 0.002215736 -0.13578525 0.08381274
0.2978727 -0.026050271 -0.17406769 0.1564494 0.06731521 -0.028349971 0.019837406 0.0032906898
-0.04963756 0.011767094 0.080380745 -0.13317274 -0.07397289 0.08091201 -0.065700755 -0.03611091
-0.13070184 -0.061030734 -0.08017265 -0.016810985 -0.047421172 -0.111701965 -0.016681004 0.034605704
-0.06855602 0.120756224 -0.13982387 -0.05846706 -0.10184011 -0.075575404 0.019879807 0.0027664825
0.12427699 0.025229432 -0.16477443 0.017344749 -0.15557635 0.113143206 0.03250654 0.03693034
0.09314456 0.023091959 0.023039788 -0.11864367 0.047417622 0.08746535 -0.14129172 0.060393523
-0.12891196 0.13230911 -0.004781866 -0.15223722 -0.04368043 -0.042135723 -0.07533902 -0.02965049
0.02293761 -0.019264799 0.057172086 0.101660326 -0.12220819 -0.080766335 -0.03995784 0.1120378
0.06821105 0.041067492 0.13074622 -0.06770695 -0.011273301 0.12275488 0.07099635 -0.100242205
0.0073964456 -0.058702555 0.14277284 0.16187969 0.05320514 0.13252299 -0.1100626 0.0051950766
-0.18424334 0.0026540959 0.009968968 -0.02121464 0.16074008 0.061607342 0.030719072 0.11599598
0.10854397 -0.07599228 -0.0948379 0.052938487 -0.020508971 -0.037898082 0.042242263 -0.028038682
-0.013650258 -0.0019594678 0.16170944 -0.05416626 -0.115624584 -0.056819722 0.07614884 -0.15011807
0.025660293 0.0021879657 -0.073516324 -0.11556209 -0.04042029 0.0072275195 0.044539206 0.06027806
0.078713745 -0.010364923 -0.01863198 -0.10464381 0.067528985 0.11987638 0.062056497 -0.05561396
0.07384075 0.073951796 -0.06459943 0.029662281 0.06894349 0.110210106 0.022154007 -0.10526966
-0.0457689 -0.032012627 -0.038326632 0.09885655 -0.014643223 -0.0061652046 -0.008650557 0.005017689
-0.018655652 0.030915802 -0.05809324 0.102301605 -0.024423547 0.049049437 0.04574767 -0.08638242
-0.19547921 -0.032244038 -0.16466671 0.011616489 0.06584875 0.037764285 -0.020075226 0.05154335
-0.09105138 -0.030006541 0.07330726 -0.041568756 -0.08651591 -0.013912571 -0.08963689 -0.0102942595
0.044651967 0.03693959 -0.2137543 0.0057365494 -0.04183597 -0.037740763 0.015259416 -0.008663499
-0.009019187 0.026687738 -0.09442558 0.006821955 0.22874953 -0.08995311 -0.14169183 0.009080064
0.11424391 0.010301056 -0.029387875 -0.07417244 -0.059415843 0.020206274 0.052721675 0.086530626
0.023795594 0.01732338 -0.06642067 -0.065097556 -0.08800853 -0.122422695 0.007643752 0.05667744
