project/backend/fpga_complier/paras/bn10_bias.npy (npy, 1152 bytes, 1 tensors)

array f4 [256]
000000 5c 32 a6 39 0b 46 75 39 f3 44 21 37 57 b4 02 3a
       0.00031699508 0.00023391114 9.612401e-06 0.0004985979
000010 1f 85 8d b8 2e fb d1 36 8b 24 2a b9 3e 9a 87 38
       -6.7482e-05 6.2579265e-06 -0.00016226077 6.4660315e-05
000020 56 d4 fa 38 74 b2 8e 38 11 ba 2d 39 e7 fb c2 b7
       0.000119604796 6.804327e-05 0.00016567881 -2.3243903e-05
000030 b1 83 63 b8 70 43 91 39 4c 44 7d 38 c9 81 a7 b7
       -5.4243665e-05 0.000277068 6.0383507e-05 -1.9968387e-05
000040 12 5f 43 37 82 2f 3f 39 78 62 3c b8 a9 d4 9a 39
       1.1645041e-05 0.00018232877 -4.49144e-05 0.00029531613
000050 15 aa a7 b8 a7 c8 0a b9 33 b8 13 38 5b 6e 41 39
       -7.994861e-05 -0.00013235454 3.521908e-05 0.00018447025
000060 98 7a 70 b9 e2 4f 2f 39 57 09 5d b9 3e 01 d2 39
       -0.00022933853 0.00016719059 -0.00021079682 0.00040055247
000070 2c eb 3e b9 4f 46 e9 38 b4 c2 39 37 06 e0 ce 38
       -0.0001820742 0.00011123402 1.1072192e-05 9.864573e-05
000080 fe e8 92 38 bf 45 52 b6 5d 41 3d b9 81 e1 b7 38
       7.005221e-05 -3.1333036e-06 -0.00018048794 8.7681234e-05
000090 8f 7c 32 39 ec 0f 93 b8 95 7d 89 b6 1e ce fa 38
       0.00017021805 -7.012472e-05 -4.097538e-06 0.00011959321
0000a0 6f 74 81 39 2a 6b af b8 4a e3 11 39 19 ae 2a 39
       0.00024691547 -8.364611e-05 0.0001391295 0.0001627732
0000b0 34 e7 40 39 3f 47 41 37 60 3a 35 39 2e e1 8c 38
       0.00018396677 1.1520285e-05 0.00017283252 6.717663e-05
0000c0 85 84 ce 39 c9 64 cb 39 8a 25 13 b9 1e 59 9a b7
       0.00039390117 0.00038794268 -0.00014032997 -1.8399729e-05
0000d0 32 22 74 b8 41 ac a2 39 8e 42 9d 39 61 0f 84 38
       -5.820598e-05 0.00031027387 0.0002999496 6.297115e-05
0000e0 3e c1 f3 37 4b 9c 46 39 4f 0d 80 39 6f fe b1 38
       2.9057843e-05 0.00018940975 0.00024423978 8.48741e-05
0000f0 10 18 c1 b7 1b 7c 07 39 b6 ea 8b b8 19 ff cc 39
       -2.3018598e-05 0.00012920836 -6.671755e-05 0.00039099975
000100 a1 42 d1 b8 ed 07 2b 39 61 6c d2 38 72 ba fa 38
       -9.978307e-05 0.00016310783 0.000100337675 0.00011955657
000110 d4 4c 51 37 5b 32 09 39 44 95 27 38 69 6d 9f 39
       1.2475259e-05 0.00013084097 3.9954917e-05 0.0003040836
000120 7e 8f f9 b6 a1 b8 8a 39 d2 40 9b 39 13 9a 13 39
       -7.437483e-06 0.0002645897 0.000296122 0.0001407641
000130 81 b1 ac b7 a3 17 ce 38 74 14 9c b8 cb f1 37 b9
       -2.0586655e-05 9.827248e-05 -7.442469e-05 -0.00017542315
000140 d0 48 0c 39 dc c0 63 b8 a4 5a e9 39 50 6d eb b8
       0.00013378565 -5.430063e-05 0.00044508756 -0.00011226034
000150 7b 92 76 38 3c e3 65 39 fb 5c c0 b8 92 4d 08 38
       5.878739e-05 0.00021923793 -9.1725924e-05 3.249717e-05
000160 83 e3 26 39 db b3 38 b8 7f fa b9 37 55 21 2f 3a
       0.00015915748 -4.4036522e-05 2.2170365e-05 0.0006680687
000170 49 73 79 b6 a2 66 0d 3a 02 8d 3c 39 00 c5 85 38
       -3.7170996e-06 0.00053940166 0.00017981607 6.378628e-05
000180 d9 96 69 3a a3 1a 23 b9 35 16 a7 39 05 ee 85 b9
       0.00089107227 -0.00015554814 0.00031869268 -0.00025545075
000190 19 23 d6 b8 99 12 16 38 85 fd 66 38 2e 75 82 39
       -0.000102108526 3.5780107e-05 5.507238e-05 0.00024882838
0001a0 2f d9 1a 3a 92 9b af 38 9b 26 47 39 de e3 3e 39
       0.00059069967 8.3736275e-05 0.000189925 0.00018204699
0001b0 d6 9c 18 38 6d 89 23 39 a2 37 10 39 3d 71 97 38
       3.638569e-05 0.00015596086 0.00013753635 7.221333e-05
0001c0 38 45 b5 b8 43 97 32 39 48 40 e2 39 16 10 00 b9
       -8.6436456e-05 0.00017031752 0.00043153972 -0.00012213024
0001d0 21 79 f6 38 9e b3 df 38 33 91 59 39 06 46 8b 38
       0.00011752756 0.00010666925 0.00020748824 6.6410794e-05
0001e0 6a 28 b8 37 70 30 5d 39 71 24 0b 39 91 b4 0a 39
       2.1953329e-05 0.00021094247 0.00013269648 0.00013227972
0001f0 0f da a5 39 56 93 e4 39 5d 56 b6 b6 3a 76 98 39
       0.0003163372 0.00043597323 -5.4340767e-06 0.00029079785
000200 22 e5 69 39 28 ba 0a 39 a7 d6 40 b9 5e c5 83 39
       0.0002230597 0.00013230054 -0.00018390511 0.00025133317
000210 ed 83 99 39 f8 20 79 39 86 b3 ce 37 4c 78 0a 3a
       0.00029280726 0.00023758772 2.464071e-05 0.0005282208
000220 07 f7 b7 37 cd 86 1f 39 30 51 36 b9 98 11 83 39
       2.1930331e-05 0.00015213639 -0.00017387117 0.00024999375
000230 30 5f f6 37 9f 05 dc 39 2c 8d 99 39 de 70 8e 37
       2.936981e-05 0.00041965858 0.00029287615 1.6980277e-05
000240 16 cf 90 38 f7 2c 04 39 81 90 03 b6 e6 af b4 b9
       6.905028e-05 0.00012605252 -1.9604634e-06 -0.0003446333
000250 62 6f 9c b7 0d 83 10 b6 30 f6 01 39 f9 12 1e 39
       -1.8648516e-05 -2.1533954e-06 0.0001239411 0.00015075122
000260 e4 c8 00 39 eb 45 38 37 6c 2f e6 b7 23 5e 3e b8
       0.00012281869 1.0983534e-05 -2.744022e-05 -4.53872e-05
000270 95 74 03 39 6c 5f e7 b8 d4 b6 0c b8 a2 5e 0f 3a
       0.00012536564 -0.00011032712 -3.3548873e-05 0.00054691185
000280 d9 66 eb 39 3c 8c 8d 39 79 39 ef b5 ee 1e 28 3a
       0.0004489932 0.00026998098 -1.7823614e-06 0.00064133
000290 a6 75 43 39 a0 56 85 39 4e 98 fb 39 cd 5e 53 38
       0.00018640477 0.00025432277 0.00047987927 5.039461e-05
0002a0 26 de 7b 39 37 95 8d 39 f9 d4 1a 37 a0 56 16 39
       0.00024019982 0.0002700479 9.228702e-06 0.00014337385
0002b0 b9 71 5a 39 ba c7 f8 37 2e 98 55 38 61 3c 06 3a
       0.00020832465 2.9656909e-05 5.0924886e-05 0.00051206915
0002c0 39 1e 3d 39 cd ce 5b b9 f3 7e 8f 39 4f 46 a7 b5
       0.00018035703 -0.00020962507 0.0002736967 -1.2462932e-06
0002d0 d8 58 b6 38 dd 75 a8 38 42 64 19 39 66 1d 21 b9
       8.694985e-05 8.032818e-05 0.00014628566 -0.00015365108
0002e0 f1 0d 43 3a b0 e5 9e 39 74 d0 87 39 06 87 11 b9
       0.0007440737 0.0003030724 0.00025904516 -0.00013878578
0002f0 88 19 98 39 b8 53 c7 b8 96 1b 13 38 5a 1a 15 39
       0.00029010721 -9.504653e-05 3.5073223e-05 0.00014219564
000300 da 83 8f b7 5d a6 7d 3a 59 71 a0 39 c9 0c c8 35
       -1.7108327e-05 0.0009675974 0.0003060203 1.4904882e-06
000310 da 1a 3b 3a e1 ba ab b8 5e aa d5 38 4b b1 41 39
       0.0007137485 -8.188724e-05 0.00010188365 0.00018471961
000320 4f 6e ad 38 e9 36 9f 38 ac f9 12 39 a9 4f 96 39
       8.2698294e-05 7.5919386e-05 0.00014016655 0.0002866958
000330 a2 3b 33 39 78 54 19 39 9a 30 09 b9 b1 fc 48 39
       0.00017092985 0.00014622684 -0.00013083444 0.00019167621
000340 ed 70 d7 36 d7 96 94 39 bc 6d 3e b9 23 a1 d0 b8
       6.4206456e-06 0.00028341144 -0.00018160691 -9.948227e-05
000350 b4 ca 3e 39 2a 3a 51 39 9f e7 25 38 58 3c 5e 39
       0.00018195325 0.00019953461 3.955478e-05 0.0002119405
000360 8f 21 9f 38 30 f6 3f b6 f3 94 5a 38 fe 40 27 39
       7.5879616e-05 -2.8604518e-06 5.211397e-05 0.00015950573
000370 f0 0e 02 39 4b 8a c8 39 97 0a 76 38 45 0d 89 38
       0.00012403331 0.0003825001 5.8660833e-05 6.535141e-05
000380 cb d6 0a b9 d3 23 3b b9 ef 83 c5 39 7c 83 ac 39
       -0.00013240722 -0.00017847055 0.00037673066 0.0003290436
000390 85 72 27 39 49 43 b3 38 cb f6 6d 39 ed 46 a6 b7
       0.00015969023 8.547918e-05 0.00022694019 -1.982177e-05
0003a0 b6 c3 67 39 ee d3 bf 39 a3 fc 21 3a d8 56 73 b8
       0.00022102785 0.0003658826 0.00061793084 -5.8016594e-05
0003b0 29 05 ae 37 7b 1f ac b8 20 aa 41 b8 d2 b2 b7 39
       2.074482e-05 -8.207463e-05 -4.6173227e-05 0.00035037711
0003c0 b2 64 a8 39 af 57 15 37 1c 63 32 b8 da e3 84 39
       0.0003211848 8.9015075e-06 -4.253081e-05 0.00025346765
0003d0 87 52 e6 37 34 4e c6 38 af 55 8d 39 59 1d 0d 39
       2.7456566e-05 9.455942e-05 0.00026957455 0.0001345774
0003e0 2d 92 38 39 a7 76 c7 38 d8 80 1e 39 48 98 65 39
       0.00017602062 9.51116e-05 0.00015116052 0.00021895871
0003f0 2c a2 a8 39 52 9e 26 39 01 33 f8 39 28 39 5d 37
       0.00032164284 0.00015889973 0.00047340247 1.3185934e-05
