project/backend/fpga_complier/paras/bn11_bias.npy (npy, 1152 bytes, 1 tensors)

array f4 [256]
-0.00016321713 -0.00019464847 0.0006466481 0.000107535634 -4.561686e-05 0.0004987942 0.0002465422 0.00018082603
1.8770748e-05 3.9889477e-05 0.00025260987 0.00014350977 -8.493629e-05 -0.00017706059 6.501475e-05 -0.00020569141
-6.900134e-05 0.00015881722 -0.000102247366 0.00039144882 -8.952646e-05 2.2486467e-05 0.00025589787 0.00010546391
0.00013475325 0.0005093656 0.00016612218 -2.7478965e-05 -0.0001764082 0.00042238718 8.215346e-05 0.00024572536
0.00020814188 0.00026384994 0.0001961173 0.00012656693 -0.00012762126 9.9254605e-05 4.5608904e-05 0.00020405624
4.2657757e-05 -0.000114148825 0.00032327982 0.00014665264 0.00018075212 0.00043054236 6.155748e-05 1.0019533e-06
-0.00027655534 0.00017226033 1.6232754e-05 -1.7954055e-05 0.00015264365 9.128985e-05 1.4254244e-05 0.00015904504
-3.147887e-05 0.00010096592 -9.382137e-05 0.0001951316 -0.00011646435 1.63409e-05 0.00018664144 0.0006834549
-4.921513e-05 0.00056725123 -1.6759046e-05 -0.00015174133 -0.00015725501 0.00017436613 0.00016552616 6.0414124e-05
0.00022803646 7.213339e-05 -0.00012320232 0.0003891965 -5.5467888e-05 7.07563e-05 7.391872e-05 -7.587213e-05
0.0001819572 0.000116190306 0.00020546131 -4.440087e-05 -0.00012637806 6.4416075e-05 0.00016269165 -3.6137866e-05
0.00070013414 0.0004422076 8.998329e-05 0.000204181 -0.00026073886 0.00029030896 0.0002355718 0.00021281146
-0.00011391093 0.00017367849 0.0001641587 -0.000281934 0.00035093562 0.00011370653 0.0004069696 0.00012674692
0.00015038133 1.0250465e-05 -3.675204e-06 0.00023305608 4.010372e-05 6.7583744e-05 -0.00013709691 7.2820917e-06
0.00015611475 4.894255e-05 0.00011951411 0.00029948427 0.00025979738 0.0006920246 -0.00015634212 0.0002029858
4.6200676e-05 5.1804227e-06 0.00031683996 5.196273e-05 5.0141694e-05 9.209458e-05 0.00022291523 -1.0320234e-05
0.00014878492 0.00021099125 0.0001454131 9.216227e-05 0.0005193563 -5.5358643e-05 0.000120352066 0.00026430507
-2.2708467e-05 0.00032900192 0.0006246472 -2.0046433e-05 0.00047809046 0.0001140063 0.00030318327 -0.00025856416
-1.1780343e-06 0.00010351082 -0.0001671691 0.000402474 -0.000101056416 -3.61216e-05 0.0001790009 -2.3699075e-05
0.00015862736 -4.589988e-06 0.00011077188 0.00010863397 0.00022687449 -3.641268e-05 3.096817e-05 0.00030243123
-1.3264899e-07 3.8389662e-05 6.4248714e-05 0.0005195356 0.000382324 0.00078154646 0.00016247036 0.0005329803
8.214237e-05 0.00012913524 0.000111144625 -1.5054263e-05 0.0005985143 5.5713357e-05 0.0003576515 -0.00019854274
0.00024163604 8.482853e-05 -3.256327e-05 0.00014545997 4.983835e-05 -0.00015087062 -0.00014600952 0.00019799534
0.0005932921 0.000110562105 0.00045799903 0.00049518887 0.00017550432 0.00032962268 5.6693658e-05 8.878551e-05
7.443277e-05 7.7941826e-05 0.0001313924 1.7155504e-05 -3.923423e-05 0.00029251107 0.00010396702 0.00029965333
-0.0002794946 0.0006028023 0.00042089014 0.00012864411 0.00020754995 -6.658887e-05 0.00017434356 0.000115935974
0.00027569145 -2.982844e-05 9.25037e-05 0.0006366054 9.035202e-05 0.00011078379 0.0004864633 0.00013720994
0.00010835198 0.0002224709 0.0002484313 -0.00029344065 3.70372e-05 0.0003083683 5.56916e-05 0.00043168192
2.0798116e-05 0.0001350722 0.00010116712 -2.6983334e-05 0.0002569189 0.0005364111 0.0007107706 -3.6207646e-05
0.00020847426 0.00019639057 0.00010132686 -8.596494e-05 1.601429e-05 1.0144355e-05 0.00044302482 0.00024805882
6.903347e-05 5.9965725e-05 -4.9713683e-05 -0.00011814997 -4.628105e-05 0.0004040859 0.0002569236 0.0005109008
0.0002896755 0.000583618 0.00023546442 0.0007588962 0.00040179325 -7.208435e-05 6.565948e-05 0.00020247274
00000000: 4425 2bb9 8d1a 4cb9 d283 293a c184 e138
00000010: bb54 3fb8 83c1 023a 5542 8139 1e9c 3d39
00000020: e075 9d37 004f 2738 b970 8439 1c7b 1639
00000030: d31f b2b8 57a9 39b9 8758 8838 deae 57b9
00000040: d0b4 90b8 2c88 2639 a36d d6b8 5f3b cd39
00000050: 27c0 bbb8 52a1 bc37 082a 8639 812c dd38
00000060: 8d4c 0d39 f286 053a 1531 2e39 a182 e6b7
00000070: 37fa 38b9 d973 dd39 ce49 ac38 b3d4 8039
00000080: a940 5a39 5755 8a39 d6a4 4d39 0db7 0439
00000090: 12d2 05b9 e926 d038 304c 3f38 eef7 5539
000000a0: 6beb 3238 2f63 efb8 e27d a939 c5c6 1939
000000b0: 4788 3d39 6bba e139 6c18 8138 da7a 8635
000000c0: a1fe 90b9 c8a0 3439 932b 8837 0a9c 96b7
000000d0: f80e 2039 dd72 bf38 8325 6f37 54c5 2639
000000e0: 2e08 04b8 aabd d338 f7c1 c4b8 3d9c 4c39
000000f0: 523e f4b8 d113 8937 2eb5 4339 e229 333a
00000100: 586c 4eb8 96b3 143a c795 8cb7 c11c 1fb9
00000110: d2e4 24b9 0dd6 3639 1791 2d39 2c65 7d38
00000120: 121d 6f39 5246 9738 df2f 01b9 120d cc39
00000130: 31a6 68b8 0063 9438 d004 9b38 8a1d 9fb8
00000140: c4cb 3e39 32ab f338 1a71 5739 123b 3ab8
00000150: 5a84 04b9 1e17 8738 3598 2a39 bd92 17b8
00000160: 3589 373a 19d8 e739 69b5 bc38 6b19 5639
00000170: c7b3 88b9 9c34 9839 d303 7739 2426 5f39
00000180: 77e3 eeb8 771d 3639 0422 2c39 8ad0 93b9
00000190: c8fd b739 ba75 ee38 895e d539 5ee7 0439
000001a0: aeaf 1d39 69f9 2b37 86a3 76b6 8460 7439
000001b0: 0b35 2838 bfbb 8d38 acc1 0fb9 b158 f436
000001c0: bcb2 2339 aa47 4d38 a6a3 fa38 1904 9d39
000001d0: 6a35 8839 fc68 353a c5ef 23b9 96d8 5439
000001e0: 99c7 4138 7ed3 ad36 8a1d a639 8ef2 5938
000001f0: 3c4f 5238 e722 c138 5abe 6939 1125 2db7
00000200: 2603 1c39 883d 5d39 087a 1839 3e47 c138
00000210: 6925 083a e430 68b8 8665 fc38 6d92 8a39
00000220: 107e beb7 e47d ac39 5dbf 233a 6329 a8b7
00000230: 37a8 fa39 ab16 ef38 92f4 9e39 e58f 87b9
00000240: f31c 9eb5 f313 d938 1d4a 2fb9 2503 d339
00000250: 40ee d3b8 4681 17b8 30b2 3b39 60cd c6b7
00000260: 3555 2639 b203 9ab6 334e e838 6bd2 e338
00000270: 28e5 6d39 d1b9 18b8 d2e3 0138 a28f 9e39
00000280: 476e 0eb4 9604 2138 44bd 8638 7231 083a
00000290: a972 c839 b2e0 4c3a ce5c 2a39 b4b7 0b3a
000002a0: d943 ac38 7a68 0739 5116 e938 9191 7cb7
000002b0: 9de5 1c3a c3ad 6938 2c83 bb39 e92f 50b9
000002c0: ae5f 7d39 f8e5 b138 8c94 08b8 9d86 1839
000002d0: 8509 5138 0633 1eb9 221a 19b9 f89c 4f39
000002e0: 2987 1b3a 94dd e738 971f f039 90cf 013a
000002f0: 9507 3839 35d1 ac39 5aca 6d38 5c32 ba38
00000300: ca18 9c38 b374 a338 61c6 0939 2ae9 8f37
00000310: 6f8f 24b8 2c5c 9939 de08 da38 ca1a 9d39
00000320: 2189 92b9 6105 1e3a ebaa dc39 a4e4 0639
00000330: c4a1 5939 a1a5 8bb8 fecf 3639 a722 f338
00000340: ae8a 9039 1638 fab7 8cfe c138 dde1 263a
00000350: 5f7b bd38 9854 e838 000c ff39 03e0 0f39
00000360: 073b e338 1447 6939 e23f 8239 f0d8 99b9
00000370: 6458 1b38 7eac a139 6696 6938 5e53 e239
00000380: 9d77 ae37 2ba2 0d39 af29 d438 455a e2b7
00000390: 12b3 8639 f19d 0c3a 0253 3a3a aadd 17b8
000003a0: e299 5a39 31ee 4d39 727f d438 1348 b4b8
000003b0: 6d56 8637 ac31 2a37 c945 e839 e40d 8239
000003c0: 10c6 9038 b583 7b38 a983 50b8 48c7 f7b8
000003d0: e61d 42b8 7edb d339 b4b3 8639 f9ed 053a
000003e0: 96df 9739 f1fd 183a 00e7 7639 a9f0 463a
000003f0: c7a7 d239 fe2b 97b8 aab2 8938 dd4e 5439
