project/backend/fpga_complier/paras/bn6_bias.npy (npy, 1152 bytes, 1 tensors)

array f4 [256]
000000 0c dc 2d 38 c6 5a 06 b9 17 e8 77 39 f8 12 35 b9
       4.145135e-05 -0.00012813052 0.00023642216 -0.00017268572
000010 0d b5 0c b9 91 80 94 38 02 34 b4 37 53 aa 2e b9
       -0.00013418887 7.081137e-05 2.148189e-05 -0.00016657384
000020 79 80 56 b9 34 47 55 b9 0b 8b 11 b9 96 60 99 b8
       -0.0002045649 -0.00020339788 -0.00013880075 -7.313599e-05
000030 fb 59 b5 38 f8 dd a6 38 c0 1f 5e b8 32 1c 86 b9
       8.647513e-05 7.956842e-05 -5.2958494e-05 -0.0002557948
000040 21 f3 9a b8 69 de 94 b9 26 7d c5 38 a1 9b 81 b8
       -7.3885785e-05 -0.00028394468 9.417003e-05 -6.1801875e-05
000050 da 65 0a b9 59 4a f6 39 5f 37 b5 b8 16 a9 28 b9
       -0.00013198648 0.0004697617 -8.641066e-05 -0.00016084718
000060 be aa 25 b9 08 15 8b 39 0a b5 1c 38 ec eb a3 39
       -0.00015799233 0.00026527815 3.7361904e-05 0.00031265558
000070 2c 38 03 39 54 32 94 38 31 d9 1e 38 d2 4a 86 b7
       0.00012514059 7.066564e-05 3.787241e-05 -1.6008886e-05
000080 5d 7a 31 b9 71 73 b6 38 df b4 2c b8 da 3a fc 37
       -0.0001692562 8.699939e-05 -4.1176445e-05 3.0068146e-05
000090 e5 23 21 b9 e7 6d 97 b6 7c b5 75 36 61 46 1f b9
       -0.00015367528 -4.512945e-06 3.6613483e-06 -0.0001518964
0000a0 6f 05 de b7 f5 97 2e 38 27 ed 98 37 3a ae d8 38
       -2.6466992e-05 4.1626354e-05 1.8230245e-05 0.00010332135
0000b0 57 b6 b3 b9 2f 5c 8f b7 6c 2c e5 b8 42 6f b6 39
       -0.00034277394 -1.7089855e-05 -0.00010927845 0.0003479664
0000c0 21 db a6 b8 83 a8 fc 38 18 b2 92 39 af 22 14 b9
       -7.956313e-05 0.00012047684 0.0002797998 -0.000141273
0000d0 af d3 12 3a ec c7 5d 38 14 3d a4 39 ea d2 9e 37
       0.00056010013 5.2876698e-05 0.00031326024 1.8933282e-05
0000e0 b4 57 98 38 7a 52 0f b8 23 d5 35 38 a5 ba 98 39
       7.264261e-05 -3.417067e-05 4.3352262e-05 0.0002913076
0000f0 f2 68 7f b9 14 25 d0 38 c6 b2 05 38 ee ec 6c 39
       -0.0002435779 9.925119e-05 3.1876167e-05 0.00022594977
000100 5f 6f 3c b9 76 f4 14 39 e9 91 e0 b8 d3 1f 6e b8
       -0.00017970566 0.00014205449 -0.0001070833 -5.677326e-05
000110 f6 db ce 39 1d 77 de 37 fa c2 ec b8 5e 45 8c 38
       0.00039455266 2.6519929e-05 -0.00011289674 6.688641e-05
000120 c7 9b 03 3a d4 e1 8d 39 3a ab 08 b9 d5 89 e9 39
       0.0005020466 0.0002706187 -0.00013033758 0.00044543916
000130 45 99 fe b7 3f 8a ad 37 33 60 4e 38 6b 86 ff b7
       -3.0350531e-05 2.0687583e-05 4.920382e-05 -3.0460962e-05
000140 35 48 5a 38 07 16 44 b8 60 76 79 b8 33 7a d7 b8
       5.20425e-05 -4.6750556e-05 -5.947647e-05 -0.0001027476
000150 a2 bc a5 37 62 7b 2a b7 2f fb f3 b8 7a ca c7 39
       1.9757372e-05 -1.0161517e-05 -0.000116339295 0.00038107095
000160 9a a4 7c b8 79 32 55 39 17 97 85 b9 6c cf f6 b8
       -6.023478e-05 0.00020332065 -0.00025480308 -0.000117688294
000170 d1 3e ab b9 1a 26 42 39 01 1f 38 b8 f0 bc d5 b8
       -0.00032662463 0.00018515476 -4.3897893e-05 -0.00010191824
000180 54 56 33 39 cb 2c a5 37 1e 7a 19 3a 71 f7 2e b8
       0.0001710293 1.9690391e-05 0.00058546837 -4.171528e-05
000190 9d 9a b3 38 c7 2f c0 38 d6 c1 f0 38 4a 14 06 39
       8.564184e-05 9.164173e-05 0.000114801966 0.00012786794
0001a0 a2 4b 1d 39 f5 3d ff 39 8b 61 27 38 25 bc 10 39
       0.00015000862 0.00048683552 3.9906747e-05 0.00013803
0001b0 3c 28 70 b9 b6 f5 aa 38 ca 8c 5b 39 2e af bd b8
       -0.00022903172 8.151999e-05 0.00020937916 -9.044852e-05
0001c0 22 19 45 b8 4e a0 a6 b6 4c 56 66 39 e3 eb a0 b8
       -4.6991867e-05 -4.9658474e-06 0.00021966657 -7.673332e-05
0001d0 00 fb e4 39 2a 95 01 b9 5b 0a 42 b9 b0 97 bd 38
       0.00043674558 -0.00012357967 -0.0001850514 9.040476e-05
0001e0 2e d5 09 39 e7 7e 6c b9 ff 36 bd 38 04 bd c8 b8
       0.00013144754 -0.00022553989 9.022466e-05 -9.57195e-05
0001f0 92 1a 92 39 09 0e 37 38 da 04 c4 39 58 16 f2 b8
       0.00027867086 4.364367e-05 0.00037387648 -0.00011543621
000200 55 0f 00 b9 f4 da f8 39 3a 10 07 b9 b6 f5 e0 b8
       -0.00012212743 0.0004746538 -0.00012880648 -0.000107269196
000210 c6 5a 86 b9 de f5 f1 38 3c 14 83 39 f1 90 ff b8
       -0.00025626103 0.00011537572 0.00025001343 -0.00012186345
000220 16 fa f6 b8 01 01 ae 37 75 bf 08 b9 ee be c3 38
       -0.00011776776 2.0742884e-05 -0.00013041294 9.333888e-05
000230 18 38 84 b8 89 49 88 37 a3 05 e4 38 93 4a d2 b8
       -6.304699e-05 1.6246706e-05 0.00010872937 -0.00010027471
000240 74 4c 2f 38 02 af 97 b8 d3 44 27 38 00 70 90 39
       4.1794454e-05 -7.232839e-05 3.988e-05 0.00027549267
000250 dc 46 2f 37 82 62 66 38 2d ed ba b7 34 d4 a7 b7
       1.0447311e-05 5.4928016e-05 -2.2283371e-05 -2.0006766e-05
000260 fb fd 18 b8 a6 cf 71 b9 2c 85 4b b7 5f c4 69 b9
       -3.647616e-05 -0.00023060906 -1.2130749e-05 -0.00022293766
000270 b0 f8 e4 38 85 6e 39 b9 10 a9 87 37 51 43 07 b9
       0.00010918209 -0.00017684147 1.617198e-05 -0.0001289968
000280 3a 37 e8 b8 da e3 ae 38 63 3d ce 39 da 38 f4 36
       -0.00011072909 8.339407e-05 0.00039337119 7.278385e-06
000290 86 cf 82 38 37 01 6a 38 40 4a 8b 39 b2 d1 d3 38
       6.237537e-05 5.579108e-05 0.00026567467 0.00010100323
0002a0 b9 4d 0c b7 f7 20 3e b8 66 af d7 37 d8 05 a5 39
       -8.3627465e-06 -4.533023e-05 2.5711674e-05 0.00031475606
0002b0 24 5f a6 b5 b2 64 8f b9 71 31 77 b9 f5 4e f1 b8
       -1.2395653e-06 -0.0002735011 -0.00023574174 -0.000115064824
0002c0 58 21 30 b8 00 ad da 37 2b a9 7a b9 3b 13 4b 39
       -4.1992724e-05 2.6068185e-05 -0.00023904878 0.00019366753
0002d0 09 f5 8e 38 4d 3f a6 b9 f9 a4 65 b9 4e 77 d3 b7
       6.816729e-05 -0.0003170915 -0.00021900599 -2.5208716e-05
0002e0 18 74 0c b8 7b a4 e7 38 d6 dc e2 38 03 ff b0 38
       -3.348672e-05 0.00011045575 0.00010817654 8.4398336e-05
0002f0 e1 fe 30 b8 0e db aa 39 75 70 8a 39 fc ca f1 b8
       -4.2199044e-05 0.00032588135 0.00026405198 -0.00011529584
000300 b1 be 63 36 d7 f9 77 b8 ce 55 38 b8 48 d6 d9 39
       3.3936633e-06 -5.912207e-05 -4.394893e-05 0.00041549117
000310 15 e9 d5 39 ec 3f 2a b9 af 6c 84 37 31 f4 28 b8
       0.00040800186 -0.00016236276 1.5786236e-05 -4.0281742e-05
000320 75 82 b6 37 ae d3 af 37 a0 72 3a 39 da ce 3e b9
       2.175684e-05 2.0960197e-05 0.00017781043 -0.0001819687
000330 39 4e 0e b9 7e d5 2b b9 5c 3e 13 39 ac 34 a7 b9
       -0.00013571316 -0.00016387363 0.00014042243 -0.00031891966
000340 16 52 7e 39 d1 7c 47 b9 9a 20 1b 39 5b 39 80 38
       0.00024253907 -0.00019024617 0.00014794097 6.114199e-05
000350 68 4c 73 b8 cd 07 1d b8 f8 12 8d b8 3d 90 eb 38
       -5.8006874e-05 -3.7438982e-05 -6.726937e-05 0.0001123254
000360 47 ba 8f 36 3d 78 0f 38 5e 46 47 39 dc cf d6 b7
       4.2834176e-06 3.4205837e-05 0.00019004333 -2.560758e-05
000370 b4 62 97 b8 c8 69 31 b8 57 b6 08 b9 f7 f9 2f 38
       -7.218626e-05 -4.2298605e-05 -0.00013037898 4.195605e-05
000380 0a 3b a2 38 35 59 53 38 0f c9 95 b9 bc 41 3c 39
       7.735759e-05 5.03894e-05 -0.00028569295 0.00017953565
000390 b3 c2 ae b8 fc 26 4d 3a bd 8a 83 b8 44 9e 64 39
       -8.333232e-05 0.00078259385 -6.272409e-05 0.00021802733
0003a0 bf a5 5f 38 11 38 e8 b8 56 4b 87 b7 03 99 77 b8
       5.3321706e-05 -0.00011073065 -1.6128335e-05 -5.9031892e-05
0003b0 58 dc d9 39 a8 3c 81 38 c9 b3 21 b9 ed ff 2e 36
       0.00041553634 6.1624974e-05 -0.00015421132 2.607699e-06
0003c0 20 45 8c 38 65 78 64 39 91 c4 81 39 99 1b a3 36
       6.688596e-05 0.00021788625 0.0002475125 4.8609913e-06
0003d0 94 81 0d 3a ed 3d b0 b9 88 c5 73 39 8a 7c 83 39
       0.0005398032 -0.00033615474 0.00023247872 0.00025079056
0003e0 fc 34 f8 b8 18 84 84 b9 3e d2 e2 39 34 58 18 b8
       -0.000118354306 -0.0002527542 0.00043262722 -3.632177e-05
0003f0 fb d6 2f 38 7f 22 ba 38 5f d6 82 b9 34 8e 90 38
       4.1923468e-05 8.8755965e-05 -0.0002495525 6.8929425e-05
