project/backend/fpga_complier/paras/bn8_bias.npy (npy, 1152 bytes, 1 tensors)

array f4 [256]
0	0x3a0e5bd5	0.0005430554
1	0xb87e6071	-6.0648137e-05
2	0x38eba195	0.0001123577
3	0xb91f0ff0	-0.00015169359
4	0x37bf16cf	2.2779595e-05
5	0x397b62b5	0.00023973997
6	0x389293ad	6.989329e-05
7	0x399ec033	0.00030279308
8	0xb989fb47	-0.00026317892
9	0xb88ffb2c	-6.865556e-05
10	0x388d496b	6.737079e-05
11	0xb98367a5	-0.00025063488
12	0x38b67bd9	8.701505e-05
13	0x38b175d3	8.461964e-05
14	0x38a70585	7.9642086e-05
15	0x390c74ea	0.00013394994
16	0xb97d2555	-0.00024141867
17	0x399c3a77	0.00029798198
18	0x397f6e12	0.000243597
19	0x397de255	0.00024212275
20	0x38c5cc72	9.431773e-05
21	0x373be6c8	1.11998015e-05
22	0xb9504207	-0.00019861023
23	0xb80b05eb	-3.3145694e-05
24	0x391f9faa	0.00015222901
25	0xb9263571	-0.00015850902
26	0xb8d48da5	-0.00010135331
27	0xb8bf312a	-9.116747e-05
28	0x3a245716	0.00062690803
29	0xb865603b	-5.4687476e-05
30	0xb90ee3c4	-0.00013627025
31	0xb72644a4	-9.910353e-06
32	0x390a12b9	0.0001316768
33	0x38d5a42d	0.000101872116
34	0x3843a6c2	4.664693e-05
35	0x37561aef	1.2761665e-05
36	0x39cc0b94	0.00038918538
37	0x3a19c8e8	0.0005866424
38	0xb924292d	-0.00015655598
39	0xb8e80095	-0.000110627305
40	0xb90db846	-0.00013515455
41	0x39ba8f14	0.00035583286
42	0xb90f723b	-0.00013680097
43	0xb88b3485	-6.637819e-05
44	0x38ff4474	0.00012172098
45	0x392ec48d	0.00016667154
46	0x3769a96e	1.3927331e-05
47	0xb98264d7	-0.00024870664
48	0x397cefac	0.00024121878
49	0x39f93628	0.0004753333
50	0x389b5cd4	7.4082665e-05
51	0x399608dd	0.00028616833
52	0x38fc1d23	0.000120217235
53	0x39a0d21f	0.0003067413
54	0x381bbb25	3.712917e-05
55	0x394856d7	0.00019105837
56	0x3880565a	6.1196e-05
57	0xb958d411	-0.00020678366
58	0xb9818dca	-0.00024710438
59	0xb860eac7	-5.3624415e-05
60	0x38fb09b6	0.000119704215
61	0xb86399c5	-5.4264226e-05
62	0x38330fbf	4.269159e-05
63	0xb802ce12	-3.1186333e-05
64	0x38465262	4.7283604e-05
65	0xb976a58d	-0.0002352206
66	0xb8aa9096	-8.133163e-05
67	0x39373cf6	0.0001747495
68	0xb83d73e2	-4.5169036e-05
69	0x387f278c	6.083357e-05
70	0xb809f8ad	-3.2894943e-05
71	0x39845bb0	0.00025245314
72	0xb68f5e94	-4.2727424e-06
73	0xb89bdd14	-7.432155e-05
74	0x37a1e748	1.9300394e-05
75	0x3951e646	0.00020017577
76	0xb81c462b	-3.7258647e-05
77	0x3996f7b8	0.00028794794
78	0xb82346a4	-3.8928018e-05
79	0xb815a1b0	-3.567495e-05
80	0xb8c283a0	-9.275158e-05
81	0x391638e1	0.00014326304
82	0xb9433385	-0.00018615842
83	0x39c53de1	0.0003762087
84	0x39840de0	0.0002518734
85	0xb919b4fb	-0.00014658638
86	0x38bc00f9	8.96472e-05
87	0xb77477f6	-1.4571464e-05
88	0x38bf1ab6	9.112565e-05
89	0xb86243a2	-5.3945587e-05
90	0x3915e4e8	0.00014295022
91	0x39970d5d	0.0002881092
92	0x38c8dbac	9.57766e-05
93	0x38df709f	0.00010654446
94	0x39749de4	0.00023328472
95	0x39a841b7	0.00032092418
96	0x383710fd	4.364642e-05
97	0x39165f8e	0.00014340712
98	0x390940b1	0.00013089438
99	0x3920b286	0.00015325294
100	0x378e38b7	1.6954129e-05
101	0x39db0b84	0.00041779515
102	0xb895eff8	-7.149571e-05
103	0x39404d2b	0.00018339294
104	0x3922df9a	0.00015532822
105	0x394f9a8d	0.00019798633
106	0x39876516	0.0002582452
107	0xb932fae7	-0.00017068871
108	0xb93fcd03	-0.00018291552
109	0xb864c390	-5.4541568e-05
110	0x38620900	5.389098e-05
111	0xb8b2da01	-8.528308e-05
112	0x387691bc	5.8786696e-05
113	0x395b2300	0.00020898506
114	0xb889fba3	-6.57954e-05
115	0x37846757	1.5783748e-05
116	0x3949e55d	0.00019254298
117	0x3a20e64b	0.0006137832
118	0x392797c9	0.00015982905
119	0x388f5638	6.834831e-05
120	0xb95ec321	-0.00021244261
121	0x38941017	7.060187e-05
122	0xb8830386	-6.247223e-05
123	0x386f1727	5.7003603e-05
124	0x3a03eff4	0.0005033009
125	0x388c5a0c	6.692493e-05
126	0x3690eccc	4.319101e-06
127	0x395b19bb	0.00020895053
128	0xb6926429	-4.3627992e-06
129	0x39a340fd	0.00031138203
130	0x390cadbb	0.0001341616
131	0xb6063205	-1.9996671e-06
132	0x387e70b6	6.066329e-05
133	0xb864c395	-5.4541586e-05
134	0x3917ef7c	0.00014489697
135	0xb9c02d5d	-0.00036654892
136	0xb70369be	-7.8328285e-06
137	0x38ea3725	0.00011168261
138	0xb6ce2124	-6.1431365e-06
139	0x39ecb301	0.00045146796
140	0x392ebdf7	0.000166647
141	0xb96df02f	-0.00022691557
142	0xb7f848db	-2.959783e-05
143	0xb7e3f30b	-2.7173684e-05
144	0x3901d125	0.00012380311
145	0xb6512469	-3.116462e-06
146	0xb8a2c149	-7.760764e-05
147	0xb7cb4b6f	-2.4234612e-05
148	0x392d9b2c	0.00016556372
149	0x389a48e8	7.356872e-05
150	0x38200533	3.8151815e-05
151	0x3894561e	7.0732305e-05
152	0xb9609e93	-0.00021421378
153	0x3932f881	0.00017067978
154	0xb6f56e86	-7.3144356e-06
155	0x3969b23b	0.00022287008
156	0xb81d609e	-3.75217e-05
157	0x39806dc8	0.00024495856
158	0x3781b83f	1.5463795e-05
159	0x39176e88	0.00014441658
160	0x39e6ab14	0.00043996482
161	0xb943d101	-0.00018674509
162	0x39fe8ee5	0.0004855312
163	0x38bd651b	9.031055e-05
164	0x38f9aff5	0.0001190602
165	0x39b344dc	0.00034192845
166	0xb904bd9c	-0.00012659136
167	0xb8cc1e34	-9.733104e-05
168	0x3899ed5c	7.33982e-05
169	0x38969362	7.1800096e-05
170	0x38538256	5.0427705e-05
171	0x39dfce15	0.00042687418
172	0x38e70092	0.000110150446
173	0xb91d24cc	-0.00014986395
174	0x39b5ef31	0.00034701222
175	0x39264d64	0.00015859824
176	0xb8ceecab	-9.866928e-05
177	0x38a0aac2	7.661201e-05
178	0xb8d71566	-0.00010255985
179	0x37cdb849	2.4523719e-05
180	0x395b1ebc	0.00020896917
181	0x39da60f3	0.00041652433
182	0x38c107fe	9.204446e-05
183	0x38c9ec5a	9.628451e-05
184	0x39a896f5	0.0003215593
185	0x394aa147	0.00019324302
186	0xb906182b	-0.00012788239
187	0xb8a2fdee	-7.77206e-05
188	0xb8772391	-5.8922513e-05
189	0x3a183937	0.00058068655
190	0x392cb096	0.00016468982
191	0x38a7c7c5	8.0003905e-05
192	0x38c8d564	9.57649e-05
193	0x37c62300	2.3619737e-05
194	0xb803bc23	-3.140805e-05
195	0x38cc4bf9	9.741629e-05
196	0xb9370456	-0.00017453855
197	0xb9843c48	-0.00025221915
198	0xb8e9d2fa	-0.00011149603
199	0xb7f985f0	-2.9745483e-05
200	0xb816eb2c	-3.5981808e-05
201	0xb79ccf30	-1.8693128e-05
202	0x39478ca1	0.00019030507
203	0xb93d5009	-0.0001805426
204	0x37d4506f	2.5309824e-05
205	0xb89e35f1	-7.5440745e-05
206	0x39d4bc97	0.000405763
207	0x38d5a0b0	0.00010186562
208	0x38567279	5.1128187e-05
209	0x38a4fdea	7.8674246e-05
210	0xb91882fd	-0.00014544647
211	0xb6e202f9	-6.735671e-06
212	0x36ee6117	7.1042555e-06
213	0xb8672a75	-5.5114233e-05
214	0x39f76e06	0.00047193485
215	0xb98ebcce	-0.0002722502
216	0xb8c699db	-9.4700335e-05
217	0x38829b86	6.2278516e-05
218	0xb93f6c2a	-0.00018255474
219	0x39452b27	0.0001880346
220	0x374ca4a1	1.2197678e-05
221	0xb89b8365	-7.41545e-05
222	0xb8d80b92	-0.00010301838
223	0x36e0a034	6.6943703e-06
224	0x38afdee5	8.3861676e-05
225	0x397ac98a	0.00023916937
226	0xb8b65241	-8.693757e-05
227	0xb8a192dc	-7.704433e-05
228	0x396ae049	0.00022399532
229	0xb8acb0b6	-8.234514e-05
230	0x38c5b0e1	9.426638e-05
231	0x3a0b118f	0.00053050456
232	0x3920fcb1	0.00015352924
233	0x388e40bb	6.7831446e-05
234	0x39146a12	0.00014153894
235	0x394c25cd	0.00019469038
236	0x398057a3	0.00024479357
237	0x381e77d9	3.7781752e-05
238	0xb91f5379	-0.00015194518
239	0x38c17ed5	9.2265815e-05
240	0x39bae29b	0.0003564552
241	0x39b05fb5	0.00033640643
242	0x3a10a5bc	0.00055178604
243	0x394a2b88	0.00019280438
244	0x37c79c8c	2.3795546e-05
245	0xb917d479	-0.00014479634
246	0x390e2f67	0.00013559834
247	0xb79c2298	-1.8612758e-05
248	0x37ea9e5d	2.7968717e-05
249	0x395693e7	0.00020463728
250	0x35c9ad63	1.5026129e-06
251	0xb811bc94	-3.474632e-05
252	0x3a5578a5	0.00081432826
253	0x39900a6c	0.00027473585
254	0xb6d7f828	-6.4363885e-06
255	0x3740e258	1.1496792e-05
