project/backend/fpga_complier/paras/conv_16_weights.npy (npy, 12928 bytes, 1 tensors)

array (column-major) f4 [1, 1, 128, 25]
-0.201675 -0.028017994 -0.15954827 -0.09105592 -0.17700604 -0.01150719 -0.08569134 -0.04580735
-0.047008626 -0.2095128 0.17402126 -0.15057062 0.117881775 0.1658098 0.17884694 -0.036930896
0.040844362 -0.14462441 -0.07327807 0.011052714 -0.04736774 -0.046284337 -0.19574377 0.029160919
-0.0024998134 0.15943728 0.10289087 0.05460912 0.07629578 0.053325977 0.16392538 -0.12942167
0.16605651 0.16300374 0.0327116 0.030783085 -0.034121435 -0.15591423 0.0022170567 -0.28088132
0.0660017 -0.17964956 0.073766 -0.18845917 0.055328146 0.16551459 -0.08596008 0.00060079765
-0.011550965 -0.03430865 -0.0037743645 -0.092778385 0.170635 0.10883414 -0.042590093 -0.14421341
-0.09478731 -0.17555897 -0.029968893 -0.2088931 0.18630774 -0.04337673 -0.03802017 -0.028731665
0.15929696 0.04074516 0.043483898 -0.02246912 -0.14573778 0.18995689 -0.05326193 -0.20184317
-0.057654746 0.22476345 -0.060843594 0.11736345 0.0056017768 -0.18792073 -0.19125444 -0.20134802
0.0042186705 0.06795379 0.00551344 0.0751799 0.026105223 0.2666967 -0.009029407 0.022771558
-0.02881466 0.17529732 -0.04860549 -0.05870765 -0.17634355 0.10675073 -0.036412477 0.1671242
0.021739826 0.11652183 0.011077158 0.13286239 0.12441274 0.31189954 0.21403486 -0.13366874
0.25494695 0.0816202 -0.2311514 -0.093843915 -0.09882291 -0.06364866 0.075093284 0.32250252
-0.0009976858 -0.10536477 -0.019087635 0.11698618 -0.13008352 -0.10299731 0.3849583 0.16772297
0.22702105 0.0513502 -0.121364884 -0.075301215 -0.08657462 0.24371824 -0.016289348 -0.0149176065
-0.07667063 -0.04695468 0.14296067 0.23589318 -0.16520233 0.016275238 0.026295675 -0.06142124
-0.037265312 -0.0736417 -0.052071985 -0.04196849 -0.028397845 0.033923294 -0.024057077 0.08541822
-0.08472415 -0.09206736 0.027111085 -0.29467925 -0.24874556 0.049448326 0.16375567 0.086381845
-0.15882677 0.38910884 0.048976164 0.093945235 0.0645477 -0.34048253 0.07106458 -0.003445442
0.25839168 -0.014604078 0.060825553 -0.03582028 0.03317326 -0.04623145 -0.16050185 -0.103331305
-0.14132744 -0.11127996 -0.019559579 0.23531047 -0.11706843 -0.12470674 -0.11726965 -0.08374163
0.012912095 -0.017851802 0.14874415 -0.0022570903 0.087837905 -0.22131455 -0.035219796 0.22883146
-0.022343 -0.034003597 0.0116242645 -0.09275797 0.053290766 -0.07513494 0.16227596 -0.118746445
-0.04751192 -0.10125932 0.2498702 -0.23537852 0.19925575 -0.14495085 -0.11784248 0.080076925
-0.041215222 -0.0018131055 0.009514403 -0.090123676 -0.116954304 -0.13154145 -0.08634253 0.06211267
0.09984514 0.13332786 -0.16792421 -0.0885685 -0.022333633 0.010862779 0.19014566 0.0026489303
0.01237273 0.118391916 0.2413197 0.013263607 0.03643025 0.17810328 -0.14798112 0.03961485
0.024709987 -0.08710634 -0.18720248 0.10950036 0.19797164 0.13680756 0.12631181 0.048079155
-0.025141634 -0.035127047 0.17167774 -0.12590839 -0.0074961022 -0.005238362 -0.016282195 0.005245096
-0.05951005 -0.021490963 -0.09031436 -0.10033711 0.17254056 -0.11188955 0.05623952 -0.057615444
-0.0829134 -0.01708334 -0.026225206 0.10211002 -0.05456661 -0.15454932 -0.33966175 0.08335907
00000000: e483 4ebe fe85 e5bc 9f60 23be 877b babd
00000010: 1241 35be a788 3cbc f17e afbd 7da0 3bbd
00000020: 1e8c 40bd 868a 56be a132 323e 2f2f 1abe
00000030: 006c f13d 0bca 293e a723 373e da44 17bd
00000040: 6b4c 273d 6c18 14be d012 96bd 7116 353c
00000050: ad04 42bd a594 3dbd 0e71 48be e1e2 ee3c
00000060: e9d3 23bb 8743 233e 73b8 d23d d0ad 5f3d
00000070: f640 9c3d 576c 5a3d 0edc 273e 1d87 04be
00000080: b80a 2a3e 74ea 263e 99fc 053d cf2c fc3c
00000090: ebc2 0bbd fba7 1fbe 0a4c 113b adcf 8fbe
000000a0: e62b 873d 0ef6 37be a112 973d 71fb 40be
000000b0: c49f 623d a87c 293e d70b b0bd d97e 1d3a
000000c0: 4240 3dbc 3a87 0cbd 545b 77bb 9802 bebd
000000d0: f1ba 2e3e 6fe4 de3d f372 2ebd aeac 13be
000000e0: d91f c2bd bbc5 33be 5381 f5bc 13e8 55be
000000f0: 75c7 3e3e ccab 31bd 0abb 1bbd ab5e ebbc
00000100: be1e 233e 66e4 263d 2c1c 323d 2911 b8bc
00000110: 493c 15be 0f84 423e 2e29 5abd faaf 4ebe
00000120: 6227 6cbd 6428 663e 2237 79bd 405c f03d
00000130: 1c8f b73b 4b6e 40be 34d8 43be 2d2e 4ebe
00000140: c63c 8a3b 5b2b 8b3d 16aa b43b ebf7 993d
00000150: 9fda d53c 788c 883e 14f0 13bc 6b8b ba3c
00000160: b90c ecbc 2481 333e 8d16 47bd 6f77 70bd
00000170: 6793 34be 20a0 da3d 4025 15bd 9b22 2b3e
00000180: b817 b23c ffa2 ee3d f87c 353c 140d 083e
00000190: 1bcc fe3d 4cb1 9f3e f42b 5b3e 75e0 08be
000001a0: 6888 823e 7e28 a73d f4b2 6cbe 3d31 c0bd
000001b0: aa63 cabd 3b5a 82bd 82ca 993d 0d1f a53e
000001c0: c8c4 82ba 7cc9 d7bd ac5d 9cbc 7396 ef3d
000001d0: 9d34 05be 41f0 d2bd 4119 c53e 92bf 2b3e
000001e0: 3578 683e 9654 523d 278e f8bd 8637 9abd
000001f0: 094e b1bd 4691 793e 3d71 85bc fa68 74bc
00000200: 7e05 9dbd 8d53 40bd 4864 123e fb8d 713e
00000210: cd2a 29be a653 853c 076a d73c d794 7bbd
00000220: 83a3 18bd 76d1 96bd 6f49 55bd 27e7 2bbd
00000230: 99a2 e8bc 27f3 0a3d 5913 c5bc bfef ae3d
00000240: db83 adbd d08d bcbd 1118 de3c 33e0 96be
00000250: 28b7 7ebe 548a 4a3d 91af 273e f7e8 b03d
00000260: 7ca3 22be 4639 c73e 3b9b 483d 5c66 c03d
00000270: 9631 843d ba53 aebe 4e8a 913d edcc 61bb
00000280: ea4b 843e f145 6fbc 3724 793d 49b8 12bd
00000290: afe0 073d 305d 3dbd 995a 24be 5d9f d3bd
000002a0: 24b8 10be bfe6 e3bd 693b a0bc 3af5 703e
000002b0: 93c1 efbd 3f66 ffbd 122b f0bd bb80 abbd
000002c0: 408d 533c f13d 92bc 6350 183e b1eb 13bb
000002d0: 5ce4 b33d 48a0 62be a242 10bd cb52 6a3e
000002e0: ab08 b7bc 5b47 0bbd b373 3e3c e4f7 bdbd
000002f0: 6b47 5a3d 59e0 99bd ab2b 263e 5631 f3bd
00000300: dc9b 42bd 0c61 cfbd f9dd 7f3e 1107 71be
00000310: b309 4c3e ff6d 14be 6657 f1bd 5fff a33d
00000320: 4bd1 28bd baa5 edba 4ce2 1b3c c392 b8bd
00000330: bd85 efbd cdb2 06be 5ad4 b0bd db69 7e3d
00000340: 9c7b cc3d 1987 083e 53f4 2bbe 6763 b5bd
00000350: 06f5 b6bc ccf9 313c 8bb5 423e ad99 2d3b
00000360: feb6 4a3c 7677 f23d 831c 773e 9a4f 593c
00000370: e337 153d b560 363e 5d88 17be 2e43 223d
00000380: 996c ca3c cf64 b2bd 02b2 3fbe ba41 e03d
00000390: 14b9 4a3e 4817 0c3e e257 013e a6ee 443d
000003a0: d4f5 cdbc 61e1 0fbd 4acc 2f3e 21ee 00be
000003b0: dda1 f5bb 91a6 abbb 3d62 85bc 0edf ab3b
000003c0: cfc0 73bd d10d b0bc bcf6 b8bd 8b7d cdbd
000003d0: 79ae 303e 5926 e5bd 695b 663d 2cfe 6bbd
000003e0: 80ce a9bd 5cf2 8bbc 3ed6 d6bc 0f1f d13d
000003f0: 3d81 5fbd 2d42 1ebe 25e8 adbe 29b8 aa3d
