project/backend/fpga_complier/paras/conv_3_weights.npy (npy, 147584 bytes, 1 tensors)

array f4 [3, 3, 64, 64]
00000000: 3ee9 78bd ef08 ef3b 2508 6cbd 3666 12be
00000010: 7650 e53c 5228 2e3c 0c8b f0bc 3ac6 cf3c
00000020: 3c12 34bd a219 843c 0c17 9e3d a476 2abd
00000030: a0bc f43c 143e 53bc f604 0a3e fd88 173d
00000040: f9cc 44bd b1b6 1e3d b211 913d b370 8e3d
00000050: d42d f63b d632 533d 97c6 84bd 7736 15be
00000060: 5496 84bd 9d81 683d 294c 24bd 1721 533d
00000070: 7623 943d a6ad b4bc 07aa df3c c432 8e3c
00000080: 65be 343d 598b dc3d 965d b3bb cf3b 303c
00000090: 9998 aebd 450e babd 9017 21bd baaf 47bd
000000a0: 63b9 a13b 3c7d 2d3c 3874 ae3d 653b 6dbd
000000b0: 403f 0a3d ba0f 1f3d ea69 8bbd 4291 b0bc
000000c0: 5857 0abe 5091 6e3d 420b 4fbd 3022 803d
000000d0: 427e 8abc 23df 5bbd 08dd 57bd cb70 8c3c
000000e0: 105d 6fbd c30d 973c e0c6 623c 48f6 b7bd
000000f0: ef2e babd f08b c13d a988 0b3e a77f 323b
00000100: 52b1 2a3d efc4 57bd df96 9f3c 0c78 993c
00000110: 51c0 d3bd 8369 293c dd01 75bd 22da ddbd
00000120: dd24 823d 84a8 243d 8db7 67bc c687 67bc
00000130: 4d94 703d 0665 ef3b c9f2 e33c d3b4 d7bc
00000140: 2df7 88bc eccf 663c 0310 843d 1dfd a53c
00000150: c027 ffbc dabc 9539 2755 8bbd 2597 cb3d
00000160: e4c1 413d 071c f7bd e371 853d 712d 36bd
00000170: 30f9 c7bc 24d7 b13d 3504 e73d 2efe 3dbe
00000180: c026 de3d 0460 0f3d 50e0 97bb a07b cabb
00000190: d2f7 583d 023b 49bd ef35 1ebd 0fe7 53bd
000001a0: a4ed 293d ba7e 94bd 9686 79bd b19b cc3c
000001b0: 2c26 2fbd fdc7 173d c59a cdbc 3d2c 08bd
000001c0: 1ede 30bd 2157 263c 6829 953d 758d 673c
000001d0: 140c d93c 2375 853d 6891 e23c 08ba 3c3d
000001e0: bd5d 1b3d c0e5 d6bc c2d3 c7bc 203f c5bc
000001f0: a135 5c3d 8876 19bd ff6b 653c 8be2 d43c
00000200: feee c3bb afb1 70bd e779 e03c c690 4dbd
00000210: dc2b 863d ccc4 9a3d aa32 273d 8fe1 0b3e
00000220: a764 7dbb fc50 87bc 6eb8 2abe 0d80 2e3d
00000230: 39fc 90bc f745 dbbd ca9e cabd d0ca 343d
00000240: 6748 0e3d 879d bebd b7c8 903d 7f46 b63c
00000250: d6de c53c a682 ab3d dcf0 013d d893 903c
00000260: fc49 ae3d 0c24 133d 53e0 b6bc ca2e 013d
00000270: 59fd 08be b577 c6bd 1ea8 453d 7d73 aa3c
00000280: 4680 cebb 2e7d a9bd abe5 d73c df0f fd3c
00000290: 1c43 283c 453b c4bd 5b9c 9cbc c843 003c
000002a0: 94fd 2a3d 8c9a 323c 37b3 bbbc 43a9 4dbb
000002b0: e71d fbba 67be 4cbd 857a f83c 4338 73bc
000002c0: f335 b13c ea3f 973c 90b1 963c 4f4e 98bd
000002d0: e6cd ff3c 0721 6ebd 1cdf 713d 5b2c 96bd
000002e0: 0332 113c 4032 f5bb 51e1 f83c 323e 663d
000002f0: c963 193b db17 76bc e677 933b 9c47 f43c
00000300: a733 393d 8cbe e9bd cf46 573d 2cf7 103e
00000310: 6836 733d dbcf 81bd 16f6 dbbb bda6 d03c
00000320: 8db4 d33d 0b10 1bbe 169b dd3c 408b 8d3d
00000330: 7150 8a3d 21b4 463d a185 763d fd73 37bd
00000340: febd 993b 70e2 55ba 19ec 8e3d 6d94 c33d
00000350: 9276 13bd daa4 b3bd 9fea bc3c 9a96 033d
00000360: 7006 db3d 7ebe c03c 942f cf3d dac2 63bb
00000370: a090 82bd 9052 5abd 0a39 f43c ed55 953d
00000380: e316 60bd 8974 79bd 71b3 913d 2edc 90bc
00000390: ab42 ecbb ad7a 0f3d 5ba5 df3c e850 503d
000003a0: 7779 b33c 36c0 2d3e 8b84 2e3d df7a cfbd
000003b0: 2b27 30bd bea1 88bc b779 a63d 98f0 2bbd
000003c0: 6689 babc bd4c 85bc cda8 3dbd 9c15 50bd
000003d0: 1245 243d c9f7 3a3d 7425 4e3d 7479 18bd
000003e0: 669a a53d c8ee d53d cbe7 a13b 9bb6 ad3c
000003f0: 6fd5 853d bf65 d03c c7ef e03c 88fc 923d
-0.060769312 0.007294766 -0.057624955 -0.14296803 0.027992468 0.01062973 -0.029363178 0.025363076
-0.043962702 0.016125504 0.077192396 -0.04161705 0.0298751 -0.012893219 0.13478455 0.036995877
-0.04804704 0.038748447 0.07083453 0.069550894 0.0075127874 0.051562153 -0.064831905 -0.14571558
-0.06473985 0.056764234 -0.040111694 0.05154523 0.07233326 -0.022055458 0.027302755 0.017358191
0.044126887 0.10768766 -0.005473803 0.010756447 -0.085251994 -0.09084753 -0.03932911 -0.04875157
0.00493543 0.01058894 0.08518261 -0.05791797 0.033751726 0.038833357 -0.06807311 -0.02155364
-0.13509881 0.05824405 -0.050547846 0.06256521 -0.016905908 -0.053679597 -0.052701026 0.017143628
-0.05843836 0.01843918 0.013841361 -0.08982521 -0.09090983 0.09450519 0.1362635 0.0027236731
0.041673012 -0.052678045 0.01948112 0.018734 -0.10339416 0.010340097 -0.05981623 -0.10832621
0.06354687 0.04019977 -0.014142883 -0.014131492 0.05873518 0.007305744 0.02782573 -0.02633134
-0.016719425 0.014087658 0.064483665 0.020262295 -0.031146884 0.000285602 -0.06803351 0.09940938
0.04730405 -0.12065893 0.06515863 -0.04447693 -0.024410814 0.08683613 0.11280099 -0.18553993
0.10847235 0.035003677 -0.0046348944 -0.006179288 0.052970715 -0.04912854 -0.038625654 -0.051734027
0.041486397 -0.07250734 -0.060919367 0.024976583 -0.042761013 0.037055958 -0.025098214 -0.033245314
-0.043180577 0.010152609 0.07283288 0.014132847 0.026495017 0.06516483 0.027657226 0.04607585
0.037931193 -0.0262326 -0.024392966 -0.024077952 0.053762082 -0.037466556 0.014002799 0.02598693
-0.005979418 -0.058763202 0.027401878 -0.050186895 0.06551334 0.07557067 0.0408198 0.13660263
-0.003866473 -0.016518109 -0.16671917 0.042602587 -0.017698394 -0.10706704 -0.09893568 0.04413873
0.034737017 -0.0930739 0.07069533 0.022250412 0.024154108 0.083745286 0.031723842 0.017648622
0.08510205 0.03592305 -0.022323763 0.031538762 -0.13377894 -0.09690801 0.048256032 0.020807022
-0.0063019125 -0.08275829 0.026354631 0.030891357 0.010269906 -0.09581617 -0.019117525 0.00782866
0.041745737 0.010901105 -0.022912605 -0.0031381405 -0.0019158692 -0.04998627 0.03033186 -0.014844957
0.02163217 0.018463094 0.018395215 -0.07436811 0.03122611 -0.058136966 0.059050664 -0.07332679
0.008862021 -0.007482797 0.030380877 0.056211658 0.0023405424 -0.015020336 0.004500377 0.029819302
0.045215275 -0.11413297 0.052557763 0.14156789 0.059378058 -0.063384734 -0.0067126853 0.025470132
0.10337172 -0.15142839 0.02705149 0.069113255 0.06753624 0.048511628 0.060186032 -0.04478835
0.0046918383 -0.0008159047 0.06978626 0.09549794 -0.03600175 -0.08771677 0.023061095 0.032126047
0.10694587 0.023528334 0.10116497 -0.0034753592 -0.06375241 -0.053301394 0.029812355 0.0729178
-0.054709326 -0.060902152 0.07114304 -0.017683115 -0.007210096 0.035029102 0.027300527 0.05085841
0.021908505 0.16967854 0.04260687 -0.10130858 -0.043006103 -0.016678687 0.08128684 -0.041977495
-0.022770595 -0.016271943 -0.04630356 -0.05080186 0.040104933 0.045646463 0.050328687 -0.0372252
0.0808609 0.104459345 0.004940962 0.021205237 0.0653485 0.025439141 0.027458085 0.07177073
