project/backend/fpga_complier/paras/conv_1_weights.npy (npy, 9344 bytes, 1 tensors)

array f4 [3, 3, 8, 32]
0	0x3c9f8f66	0.019477557
1	0x3e259fb5	0.16174205
2	0xbe88e80f	-0.26739547
3	0xbe0dd602	-0.13851169
4	0x3ce552c0	0.02799356
5	0xbd430f87	-0.04762223
6	0xbe863579	-0.2621267
7	0xbd480510	-0.048832953
8	0x3aa0cf99	0.00122689
9	0x3d9c4c5c	0.07631752
10	0xbe140cbf	-0.14457987
11	0x3e5c88d2	0.21536568
12	0xbe4d496d	-0.20047541
13	0x3e06812a	0.1313521
14	0xbe19e82d	-0.15029974
15	0xbe043dfb	-0.12914269
16	0xbd8402d9	-0.06445856
17	0x3e06c7f1	0.13162209
18	0x3e605dd8	0.21910799
19	0x3ec0d861	0.37665084
20	0xbdd9bab0	-0.10631311
21	0x3e2c6b81	0.16837884
22	0xbe6d00dd	-0.2314486
23	0xbeb38985	-0.35065857
24	0xbe3beaa9	-0.18351234
25	0xbc9a68d3	-0.018848812
26	0xbba187ef	-0.0049295346
27	0x3da73435	0.081642546
28	0x3bf652a9	0.007517178
29	0x3e6de1b1	0.23230626
30	0xbc8cce7b	-0.017188301
31	0x3f011541	0.50423056
32	0x3e81b897	0.25336143
33	0x3d9774b0	0.07395303
34	0xbec329da	-0.38117868
35	0x3e23062c	0.15920323
36	0x3d689472	0.056782193
37	0x3d39724a	0.04527501
38	0x3e0a7c77	0.13524042
39	0xbe247f19	-0.16064109
40	0x3e65dd8d	0.22447796
41	0xbdf2c36b	-0.11853679
42	0x3c9a9415	0.01886944
43	0xbe38cc56	-0.18046698
44	0x3e34a8f5	0.17642577
45	0xbc4a3d11	-0.012343661
46	0xbd674b68	-0.056468397
47	0x3d35272b	0.044226807
48	0xbd59ee73	-0.05320592
49	0x3de4ad28	0.111658394
50	0x3e3a89dd	0.18216653
51	0xbdc10c34	-0.09426156
52	0xbe07f081	-0.13275339
53	0xbcca34bc	-0.024683349
54	0xbdef23a6	-0.11676721
55	0xbe53906f	-0.20660566
56	0x3df4c910	0.11952412
57	0x3cee0164	0.029053397
58	0xbe05c67d	-0.13063999
59	0xbea8ccb7	-0.32968685
60	0xbeba05e1	-0.3633261
61	0xbd7e80a7	-0.06213441
62	0x3e821ecd	0.25414124
63	0x3de73a6a	0.112904385
64	0x3e5d2921	0.2159772
65	0xbe248068	-0.16064608
66	0xbe5182c5	-0.20460041
67	0x3dd8a07c	0.10577485
68	0x3e2c1aa8	0.16807044
69	0xbe62c66e	-0.22146007
70	0x3d6c263e	0.057653658
71	0xbddeddcb	-0.108821474
72	0xbe1f58c8	-0.15561211
73	0x3de83444	0.11338094
74	0xbea9ccca	-0.33164054
75	0x3e11c1a5	0.14234026
76	0x3e8abc36	0.2709672
77	0xb97b4dc9	-0.00023966203
78	0xbdcbdea0	-0.09954572
79	0x3e9919f0	0.299026
80	0xbe1a24ae	-0.15053055
81	0xbdbc030d	-0.091802694
82	0x3e55ed52	0.20891312
83	0x3d92c192	0.07165827
84	0x3e4fa43c	0.20277494
85	0xbe8126c6	-0.25224894
86	0x3da4ceaa	0.080472305
87	0xbd359bc7	-0.044338014
88	0xbd392cb1	-0.045208637
89	0xbc33c6fc	-0.010972735
90	0x3e31f909	0.17380156
91	0xbd7e57ec	-0.062095568
92	0xbdf95ced	-0.12175927
93	0xbe0b18ec	-0.13583726
94	0x3e2bf1e8	0.16791499
95	0xbdf67e02	-0.12035753
96	0x3d023afb	0.03179453
97	0xbda7195a	-0.08159132
98	0x3d3f4457	0.046696033
99	0xbd26fccb	-0.040768426
100	0x3d60e429	0.05490509
101	0x3e042b6d	0.1290719
102	0x3e42f80f	0.1903994
103	0xbe1e05fb	-0.15431969
104	0xbe89aaa8	-0.26888013
105	0x3d6910df	0.056900855
106	0x3d837c8a	0.06420238
107	0xbd63d2cc	-0.055620953
108	0x3e0ee290	0.13953614
109	0xbea892bd	-0.32924452
110	0xbe92c39c	-0.28664863
111	0x3db321ab	0.08746656
112	0xbe5ce1bc	-0.21570486
113	0x3e34b44b	0.17646901
114	0x3dfe9f06	0.12432675
115	0x3e30bdc1	0.17259885
116	0xbd840625	-0.064464845
117	0xbb70c20f	-0.0036736762
118	0xbdec9161	-0.11551166
119	0xbc9e5430	-0.019327253
120	0x3d9bacee	0.07601343
121	0xbe84ced1	-0.25939038
122	0xbe70c8b0	-0.23514056
123	0x3d7ec59b	0.06220017
124	0x3e35bfb7	0.17748915
125	0xbe481431	-0.19538952
126	0xbd19fc36	-0.037594043
127	0x3d575c8d	0.052578498
128	0x3bfa9654	0.007647315
129	0xbd0c8c1a	-0.0343133
130	0x3e90da21	0.2829142
131	0x3dd77d5d	0.10521958
132	0x3e9691fa	0.29408246
133	0x3dc0cbeb	0.09413894
134	0xbe4617d6	-0.1934503
135	0x3e71fe30	0.23632121
136	0x3d17e596	0.037084185
137	0x3cf87b24	0.030332156
138	0xbd58c14f	-0.05291873
139	0x3e2c0c26	0.1680151
140	0xbe47fe95	-0.19530709
141	0x3d3114dc	0.043232784
142	0xbdc22210	-0.09479153
143	0x3e47855e	0.1948447
144	0x3ef65045	0.48108116
145	0x3e83e34b	0.25759348
146	0xbdd6e525	-0.104929246
147	0x3c0bebf8	0.008540146
148	0xbd27e81e	-0.04099285
149	0xbeb7f90f	-0.35932204
150	0xbd6fd16d	-0.058549333
151	0xbe5668c6	-0.20938405
152	0x3e56e9eb	0.2098767
153	0x3e3a716a	0.18207327
154	0x3eadcaa9	0.3394368
155	0xbbbf683c	-0.005841283
156	0xbe495202	-0.1966019
157	0x3dd7468d	0.10511503
158	0x3e623155	0.22089131
159	0xbe06a297	-0.1314796
160	0xbdca5f58	-0.098814666
161	0x3e4925dc	0.19643348
162	0xbe3864b2	-0.18007162
163	0x3e029c27	0.1275488
164	0x3e127459	0.14302196
165	0xbd4e4a88	-0.050364047
166	0xbe414c2d	-0.18876715
167	0xbe24dc25	-0.16099603
168	0xbe856e63	-0.2606078
169	0x3eaafa42	0.33394057
170	0xbeca9435	-0.39566198
171	0x3d23c92e	0.03998678
172	0xbbed9310	-0.007250197
173	0xbe8d61fc	-0.2761382
174	0x3d109671	0.035299722
175	0x3e0b1a5a	0.13584271
176	0x3e823958	0.25434375
177	0xbe23c703	-0.15993886
178	0xbec7ea94	-0.39046156
179	0x3c7d897f	0.015474676
180	0x3d651c5b	0.055935245
181	0x3e99eb2d	0.30062237
182	0xbe4a838d	-0.19776745
183	0x3d697cb3	0.057003688
184	0xbe876337	-0.26442882
185	0x3d3dc564	0.046330824
186	0xbc952695	-0.018206874
187	0x3c5e5df9	0.0135722095
188	0xbed32cf9	-0.4124525
189	0xbd723ff9	-0.05914304
190	0xbe4b31a9	-0.19843163
191	0xbe844962	-0.25837237
192	0xbd06c14b	-0.032899182
193	0xbe027549	-0.12740053
194	0xbe32722d	-0.17426367
195	0x3de0effc	0.109832734
196	0x3e547344	0.20747095
197	0x3d906fe2	0.0705259
198	0xbe116bff	-0.14201353
199	0x3ea547b0	0.32281256
200	0xbca9ebac	-0.02074226
201	0xbe876818	-0.26446605
202	0x3dc4ac25	0.096031465
203	0x3e35fc63	0.17772059
204	0xbd2cdc96	-0.042202555
205	0xbe953585	-0.29142395
206	0x3e5befda	0.21478215
207	0x3da16c5b	0.07881995
208	0xbcf04d97	-0.029333873
209	0x3d322f96	0.043502413
210	0x3d62e2da	0.055392124
211	0xbe2ae5d7	-0.1668924
212	0x3c49e5da	0.012322867
213	0x3e455209	0.19269575
214	0x3e917cb6	0.2841546
215	0xbed51988	-0.4162104
216	0xbdb98e4f	-0.09060346
217	0xbcf4ad20	-0.029867709
218	0x3dbde748	0.09272629
219	0xbe48e3e5	-0.19618185
220	0xbe00fbb2	-0.12596014
221	0x3e2d3dd2	0.16918114
222	0xbc9ed498	-0.019388482
223	0x3e47e4ac	0.19520825
224	0xbb7d8308	-0.0038682837
225	0xbe12432d	-0.14283438
226	0xbe5ec062	-0.21753076
227	0x3e176a56	0.14786658
228	0xbe18f1e0	-0.14936018
229	0xbd72c41a	-0.05926905
230	0xbdd329c1	-0.10310698
231	0xbd3da999	-0.04630432
232	0xbddfa916	-0.109209225
233	0x3dfe4e74	0.124173075
234	0xbe3c7909	-0.18405546
235	0xbd2816d9	-0.041037414
236	0xbde051c1	-0.10953093
237	0x3eab7e33	0.3349472
238	0x3d9b3aeb	0.07579597
239	0x3ec99a25	0.39375415
240	0xbe09a7dc	-0.1344294
241	0x3c9e17c9	0.019298451
242	0x3e665d63	0.22496562
243	0x3db867e2	0.09004189
244	0x3e7ed89b	0.24887316
245	0x3e5bd08e	0.21466276
246	0xbae8de97	-0.0017766532
247	0x3dc89d46	0.097956225
248	0x3e04fcc5	0.12987049
249	0xbe1a6e29	-0.15081085
250	0xbd3a6615	-0.04550751
251	0x3e187f65	0.14892347
252	0xbde71420	-0.112831354
253	0x3e93e40e	0.2888493
254	0x3eb7ca9f	0.35896775
255	0x3cba7642	0.022761468
