project/backend/fpga_complier/paras/conv_14_weights.npy (npy, 589952 bytes, 1 tensors)

array f4 [3, 3, 128, 128]
0	0x3ace0f38	0.0015721088
1	0x3d882286	0.0664721
2	0x3cb45e71	0.02201769
3	0x3d63f1fc	0.055650696
4	0x3d7e42e7	0.06207552
5	0xbc52ae2f	-0.012858911
6	0xbb7ee946	-0.0038896366
7	0x3d0354ae	0.03206318
8	0x3db3d754	0.08781305
9	0x3ba92b77	0.005162652
10	0xbb7929f4	-0.003801939
11	0x3bbc812c	0.005752703
12	0x3c403e75	0.011733641
13	0x3d182091	0.037140433
14	0xbbad20df	-0.0052834596
15	0xbcd74f5f	-0.026282964
16	0x3d708d20	0.058728337
17	0x3d40c7f8	0.047065705
18	0x3d9af49d	0.075661875
19	0x3cd6f8c1	0.026241662
20	0x3c04f3f2	0.008114802
21	0xbce9ca33	-0.028538799
22	0x3c1a1a5a	0.009405697
23	0xbc9fb9dc	-0.019497804
24	0xbc13a977	-0.009012572
25	0xbbd6ad9c	-0.0065514576
26	0x3d092099	0.033478353
27	0xbd563940	-0.05230069
28	0x3d0acd18	0.033887
29	0xbcb20bb4	-0.021734096
30	0xbd0406dc	-0.032233104
31	0x3c913423	0.017725056
32	0x3d37bc37	0.04485723
33	0x3c7b3ada	0.0153338555
34	0x3d68c8ba	0.056832053
35	0xbcb8f65e	-0.022578415
36	0xbcbeebec	-0.023305856
37	0xbc76942a	-0.0150499735
38	0xbcecfd1e	-0.02892929
39	0x3d71558d	0.05891948
40	0x3d5441f8	0.051820725
41	0xbcffd96c	-0.031231605
42	0x3d983369	0.07431681
43	0x3d342061	0.04397619
44	0xbd2d2ee2	-0.04228104
45	0x3d1e02a8	0.038576752
46	0x3dd59bb0	0.10430086
47	0x3ca94ad1	0.020665558
48	0xbd440ce3	-0.047863852
49	0xbb81c25a	-0.003959936
50	0xbcbcbfd6	-0.023040693
51	0x3bb7e493	0.005611965
52	0xbb9bfcb7	-0.0047603506
53	0xbcba0da3	-0.02271158
54	0xbb82580c	-0.003977781
55	0xbc90fde3	-0.017699188
56	0xbc877df4	-0.016539551
57	0x3c058cfe	0.008151291
58	0xbd129dd0	-0.035795033
59	0x3bf5845b	0.0074925846
60	0xbd802b0a	-0.06258209
61	0xbd4ebc76	-0.0504727
62	0x3ca43319	0.020043897
63	0x3cec3d2d	0.028837765
64	0x3d3cb46d	0.046070505
65	0x3ba2d231	0.0049689044
66	0x3b8abe1c	0.0042340886
67	0x3d787c14	0.060665205
68	0x3d3f9108	0.046769172
69	0x3d3c699a	0.045999147
70	0x3d66aa2b	0.05631463
71	0x3beb5ca1	0.007182673
72	0x3d839461	0.064247854
73	0x3bafbc0a	0.005362992
74	0xbc45e1bf	-0.012077748
75	0x3c97186d	0.018444264
76	0x3d0c0b7c	0.03419064
77	0x3cef3e10	0.029204398
78	0xbb561a0e	-0.0032669338
79	0x3b547578	0.003241865
80	0xbd8172c6	-0.063207194
81	0xbca6e677	-0.020373566
82	0xbd09f1c7	-0.033677842
83	0x3cbdb91c	0.023159556
84	0xbc6cba49	-0.014448711
85	0xbc02d489	-0.007985243
86	0xbd74ceea	-0.05976764
87	0xbcb72d27	-0.022360398
88	0x3d6f6abd	0.058451403
89	0xbdb4edd5	-0.08834425
90	0x3c269199	0.010166549
91	0xbc976254	-0.018479504
92	0x3bd9f410	0.006651409
93	0xbc819b01	-0.015820982
94	0x3be47569	0.006972004
95	0x3c80f6de	0.015742715
96	0xbc0d4ecc	-0.008624744
97	0xbd082aa9	-0.03324381
98	0xbcb7d0e0	-0.022438467
99	0x3a64ca43	0.0008727649
100	0x3c0a5365	0.008442734
101	0x3cc31bef	0.02381703
102	0x3c9c85df	0.019106803
103	0x3cf2c85c	0.029636554
104	0x3d0361ff	0.03207588
105	0x3c9c2a20	0.019063056
106	0x3d066373	0.032809686
107	0x3c0fff5e	0.008788912
108	0x3b8c08db	0.0042735166
109	0x3cf31998	0.02967529
110	0xbd3b94a0	-0.045796037
111	0xbd25db89	-0.04049257
112	0x3d346c95	0.044048864
113	0x3c4967c6	0.012292808
114	0x3d2512e7	0.04030123
115	0xbabe599c	-0.0014522555
116	0xbba21825	-0.004946726
117	0xbb57f2bf	-0.0032951084
118	0xbdcd36a1	-0.10020185
119	0xbc048bd9	-0.008089983
120	0xbd728d9a	-0.059217073
121	0x3d07284e	0.032997422
122	0x3d84e2d8	0.064885795
123	0xbd61209d	-0.054962743
124	0xbceea89d	-0.029133135
125	0xbdc35940	-0.095385075
126	0xbde69efe	-0.11260794
127	0x3d3fcd81	0.046826843
128	0x3d80f486	0.06296639
129	0x3ce43d14	0.027861156
130	0x3d8f3974	0.0699338
131	0x3db17e44	0.086666614
132	0xbd439ae2	-0.04775513
133	0x3c1bbafb	0.009505029
134	0xbd8ff1f9	-0.070285745
135	0x3d37bd60	0.044858336
136	0xbcaef17f	-0.021355389
137	0xbd28b30f	-0.04118639
138	0xbc134a06	-0.0089898165
139	0x3cd8878d	0.026431823
140	0xbd0ad01e	-0.033889882
141	0x3d83b8ce	0.06431733
142	0xbd37feb6	-0.044920646
143	0xbd97664c	-0.073925585
144	0xbce01248	-0.027352467
145	0xbc60c1b2	-0.013718056
146	0xba4a1e78	-0.00077102287
147	0x3de3fe81	0.11132527
148	0xbd773b09	-0.060359035
149	0x3a0892ee	0.00052098825
150	0xbc8402c6	-0.016114604
151	0xbd967617	-0.073467426
152	0x3cb7454a	0.022371907
153	0xbd81514b	-0.063143335
154	0xbcec5681	-0.028849842
155	0x3c9a63bc	0.018846385
156	0xbbb14aae	-0.005410514
157	0xbd002da1	-0.031293515
158	0xbcc6e06e	-0.024276938
159	0x3cbcc4fd	0.02304315
160	0xbcb4f299	-0.022088336
161	0x3c5c9fb0	0.013465807
162	0x3d134287	0.035952117
163	0x3c14fe4f	0.009093835
164	0xbcb9ac3b	-0.022665134
165	0xbc293b9c	-0.010329153
166	0x3da3a4ac	0.07990393
167	0xbc368d67	-0.011142111
168	0x3b257208	0.002524497
169	0xbd06d441	-0.032917265
170	0xbd0569fb	-0.032571774
171	0xbc638d68	-0.013888694
172	0x3bda9ad7	0.0066712904
173	0x3dceeccb	0.101037584
174	0xbd854bf6	-0.06508629
175	0x3cc13274	0.023583628
176	0xbcd5bb64	-0.026090331
177	0xbcba8c1e	-0.022771891
178	0xbb60e748	-0.0034317542
179	0x3d28760c	0.041128203
180	0xbc91ef5a	-0.017814327
181	0xbcbe3681	-0.023219349
182	0x3de18cd2	0.110131875
183	0x3ccdd8ae	0.025127735
184	0x3d453f5d	0.04815613
185	0x3cdf86ff	0.02728605
186	0xbd3e4c7c	-0.04645966
187	0x3d411897	0.04714259
188	0xbd659710	-0.056052268
189	0x3cb199d5	0.021679798
190	0xbb025a60	-0.0019890293
191	0xbd194587	-0.037419822
192	0x3d37431a	0.044741727
193	0xbca9a71a	-0.020709563
194	0xbbca2724	-0.0061692167
195	0x3cd90063	0.026489442
196	0xbb68194f	-0.0035415476
197	0x3afcc6ec	0.0019285358
198	0xbd2d5205	-0.042314548
199	0x3d50079b	0.050788503
200	0x3d12453a	0.03571055
201	0x3cbb3a4e	0.02285495
202	0xbcb1b285	-0.02169157
203	0xbd58a0cc	-0.052887723
204	0xbd343d39	-0.0440037
205	0x3b38f83a	0.0028224126
206	0xbb87a80a	-0.004139905
207	0x3cb723a4	0.022355862
208	0xbd5de0cb	-0.054169457
209	0x3d4e6d9c	0.0503975
210	0xbd2934dc	-0.041310176
211	0x3d7a04be	0.06103968
212	0xbd1054ea	-0.03523723
213	0x3c36241c	0.011117008
214	0xbd673513	-0.0564471
215	0x3c0a34a6	0.008435404
216	0xbc991ad8	-0.018689558
217	0xbbe1273e	-0.006871133
218	0xbbd93da9	-0.006629665
219	0x3d19e9c5	0.037576456
220	0xbc71e297	-0.014763496
221	0x3c30e63c	0.01079708
222	0x3c33f263	0.0109830825
223	0xbc34c87f	-0.01103413
224	0x3da83a2a	0.08214219
225	0x3d26884d	0.04065733
226	0xbc8ad27e	-0.016946074
227	0xbd831300	-0.06400108
228	0x3cee8fc9	0.029121296
229	0x3cfb46a1	0.030673327
230	0xbd5821ff	-0.052766796
231	0xbbfe4f39	-0.007760909
232	0xbcd034a6	-0.02541573
233	0x3d0fbb12	0.035090514
234	0x3d877e3b	0.066158734
235	0x3b53c8fe	0.0032315846
236	0x3d9c1409	0.07621009
237	0x3b00a698	0.0019630548
238	0x3c0081d4	0.007843453
239	0x3b8ecec0	0.0043581426
240	0x3c248f48	0.010043927
241	0x3be231a6	0.006902891
242	0x3d642d88	0.055707484
243	0xbc6b23ba	-0.01435178
244	0xbc2d63ee	-0.010582907
245	0x3d2aada8	0.041669518
246	0xbbb13019	-0.005407345
247	0x3c084f71	0.008319722
248	0xbc21eb1b	-0.009882714
249	0xbbf3f7b8	-0.007445302
250	0x3c0edcf0	0.008719668
251	0xbcd2cd52	-0.02573267
252	0x3ba3fe59	0.005004686
253	0x3b45cfd2	0.0030183685
254	0xbd28b4ef	-0.041188177
255	0xbca2402a	-0.019805986
