project/backend/fpga_complier/q_paras/conv_12.convs.0.weight.npy (npy, 166016 bytes, 1 tensors)

array f4 [72, 64, 3, 3]
0.0963286 -0.016999165 -0.011332776 -0.10482818 0.019832358 -0.019832358 0.11474436 -0.005666388
-0.021248955 -0.045331106 -0.07224645 -0.041081313 0.10624478 -0.016999165 0.018415762 -0.028331941
-0.012749374 -0.053830687 0.016999165 0.03399833 0.049580898 0.0070829852 0.036831524 -0.06516346
-0.005666388 -0.07224645 -0.03399833 0.06233027 -0.1444929 0.03399833 0.041081313 0.004249791
-0.016999165 0.015582567 0.0 0.07224645 0.053830687 -0.07224645 0.039664716 0.009916179
-0.0141659705 0.012749374 -0.015582567 0.046747703 0.004249791 0.092078805 0.07366305 -0.11191117
0.0070829852 -0.018415762 -0.016999165 -0.019832358 0.001416597 -0.031165134 0.031165134 -0.04249791
0.005666388 -0.04249791 0.046747703 0.0141659705 -0.008499582 0.005666388 -0.050997496 0.0141659705
0.05241409 0.026915343 0.07649624 0.060913675 -0.0141659705 -0.049580898 0.06374687 0.097745195
-0.07932943 0.12891033 0.17990783 0.019832358 0.056663882 0.06374687 -0.03824812 0.035414927
0.009916179 -0.012749374 -0.025498748 0.026915343 0.011332776 0.022665553 -0.109077975 0.109077975
-0.07649624 -0.03258173 -0.039664716 -0.002833194 -0.043914508 0.059497077 -0.0070829852 0.019832358
0.026915343 0.012749374 -0.053830687 -0.046747703 0.049580898 0.011332776 0.11049457 -0.03824812
0.002833194 0.07791284 -0.07932943 0.009916179 -0.0141659705 -0.092078805 0.099161796 0.06941325
0.045331106 -0.019832358 -0.08499582 -0.02408215 0.015582567 0.011332776 -0.03258173 0.001416597
-0.036831524 -0.001416597 -0.03399833 -0.10199499 -0.0070829852 0.0070829852 0.008499582 -0.049580898
0.10624478 0.005666388 -0.097745195 0.03399833 -0.021248955 0.029748539 0.05808048 -0.016999165
-0.011332776 0.053830687 0.016999165 0.008499582 0.022665553 -0.015582567 0.07082985 0.041081313
-0.08357923 -0.025498748 0.055247284 0.015582567 -0.015582567 0.021248955 -0.060913675 0.036831524
0.12182735 0.019832358 0.10057839 -0.07932943 -0.113327764 0.012749374 -0.06941325 0.04249791
-0.11757755 -0.053830687 -0.016999165 -0.06516346 0.02408215 -0.026915343 0.04249791 0.07507964
0.087829016 -0.10199499 0.031165134 -0.050997496 0.015582567 -0.012749374 0.004249791 -0.02408215
0.001416597 -0.016999165 -0.001416597 -0.060913675 -0.07366305 0.04249791 0.082162626 0.10624478
0.03824812 -0.053830687 -0.06941325 -0.0070829852 -0.13174352 -0.02408215 0.03399833 0.055247284
0.10482818 0.050997496 -0.094912 0.022665553 -0.008499582 0.016999165 -0.019832358 0.107661374
-0.045331106 -0.039664716 0.07649624 0.11191117 -0.041081313 -0.060913675 -0.05241409 -0.035414927
-0.093495406 -0.019832358 -0.107661374 -0.005666388 0.036831524 -0.11616096 -0.066580065 0.109077975
0.050997496 -0.019832358 0.08074603 -0.053830687 0.041081313 0.11616096 -0.004249791 0.028331941
0.03258173 -0.10482818 -0.055247284 -0.05241409 0.09066221 0.012749374 -0.019832358 -0.04249791
0.050997496 -0.046747703 0.043914508 -0.015582567 -0.03399833 0.06516346 -0.10624478 -0.004249791
-0.0481643 0.005666388 -0.0141659705 -0.056663882 -0.08499582 0.0 -0.107661374 0.07507964
-0.001416597 0.0070829852 0.07649624 -0.05241409 -0.001416597 0.10624478 -0.056663882 -0.029748539
00000000: ee47 c53d d541 8bbc 1cad 39bc 28b0 d6bd
00000010: 7877 a23c 7877 a2bc 17ff ea3d 1cad b9bb
00000020: 4a12 aebc 1cad 39bd f2f5 93bd e144 28bd
00000030: dd96 d93d d541 8bbc a7dc 963c 6318 e8bc
00000040: c0e2 50bc 917d 5cbd d541 8b3c d541 0b3d
00000050: 5715 4b3d 6318 e83b a7dc 163d 6c74 85bd
00000060: 1cad b9bb f2f5 93bd d541 0bbd 064e 7f3d
00000070: f2f5 13be d541 0b3d e144 283d d541 8b3b
00000080: d541 8bbc 064e 7f3c 0000 0000 f2f5 933d
00000090: 917d 5c3d f2f5 93bd 7877 223d 7877 223c
000000a0: 6318 68bc c0e2 503c 064e 7fbc 857a 3f3d
000000b0: d541 8b3b d093 bc3d a7dc 963d af31 e5bd
000000c0: 6318 e83b a7dc 96bc d541 8bbc 7877 a2bc
000000d0: 1cad b93a 064e ffbc 064e ff3c 4a12 2ebd
000000e0: 1cad b93b 4a12 2ebd 857a 3f3d 6318 683c
000000f0: d541 0bbc 1cad b93b c0e2 50bd 6318 683c
00000100: 28b0 563d 917d dc3c 10aa 9c3d 9e80 793d
00000110: 6318 68bc 5715 4bbd b88d 823d a22e c83d
00000120: 7877 a2bd 1201 043e c239 383e 7877 a23c
00000130: 6318 683d b88d 823d 10aa 1cbd 3e0f 113d
00000140: 7877 223c c0e2 50bc c0e2 d0bc 917d dc3c
00000150: 1cad 393c 1cad b93c 4664 dfbd 4664 df3d
00000160: 10aa 9cbd 6c74 05bd 7877 22bd 1cad 39bb
00000170: b3df 33bd 35b3 733d 6318 e8bb 7877 a23c
00000180: 917d dc3c c0e2 503c 917d 5cbd 857a 3fbd
00000190: 5715 4b3d 1cad 393c fa4a e23d 10aa 1cbd
000001a0: 1cad 393b c490 9f3d 7877 a2bd 7877 223c
000001b0: 6318 68bc d093 bcbd 5715 cb3d 8928 8e3d
000001c0: 1cad 393d 7877 a2bc 4a12 aebd ee47 c5bc
000001d0: 064e 7f3c 1cad 393c 6c74 05bd 1cad b93a
000001e0: a7dc 16bd 1cad b9ba d541 0bbd c0e2 d0bd
000001f0: 6318 e8bb 6318 e83b d541 0b3c 5715 4bbd
00000200: dd96 d93d 1cad b93b a22e c8bd d541 0b3d
00000210: 4a12 aebc 35b3 f33c cce5 6d3d d541 8bbc
00000220: 1cad 39bc 917d 5c3d d541 8b3c d541 0b3c
00000230: 1cad b93c 064e 7fbc 3e0f 913d e144 283d
00000240: 962b abbd c0e2 d0bc fa4a 623d 064e 7f3c
00000250: 064e 7fbc 4a12 ae3c 9e80 79bd a7dc 163d
00000260: 9e80 f93d 7877 a23c 0bfc cd3d 7877 a2bd
00000270: 6318 e8bd c0e2 503c 8928 8ebd 4a12 2e3d
00000280: 80cc f0bd 917d 5cbd d541 8bbc 6c74 85bd
00000290: ee47 c53c 917d dcbc 4a12 2e3d 5bc3 993d
000002a0: b3df b33d c0e2 d0bd 064e ff3c c0e2 50bd
000002b0: 064e 7f3c c0e2 50bc d541 8b3b ee47 c5bc
000002c0: 1cad b93a d541 8bbc 1cad b9ba 9e80 79bd
000002d0: a7dc 96bd 4a12 2e3d e144 a83d dd96 d93d
000002e0: 10aa 1c3d 917d 5cbd 8928 8ebd 6318 e8bb
000002f0: c6e7 06be ee47 c5bc d541 0b3d fa4a 623d
00000300: 28b0 d63d c0e2 503d 3961 c2bd 1cad b93c
00000310: d541 0bbc d541 8b3c 7877 a2bc 917d dc3d
00000320: 1cad 39bd 7877 22bd 10aa 9c3d af31 e53d
00000330: e144 28bd 9e80 79bd 28b0 56bd 3e0f 11bd
00000340: 857a bfbd 7877 a2bc 917d dcbd 1cad b9bb
00000350: a7dc 163d cce5 edbd 215b 88bd 4664 df3d
00000360: c0e2 503d 7877 a2bc 2d5e a53d 917d 5cbd
00000370: e144 283d cce5 ed3d d541 8bbb 6318 e83c
00000380: 6c74 053d 28b0 d6bd fa4a 62bd 28b0 56bd
00000390: 1cad b93d c0e2 503c 7877 a2bc 4a12 2ebd
000003a0: c0e2 503d 857a 3fbd b3df 333d 064e 7fbc
000003b0: d541 0bbd 6c74 853d dd96 d9bd d541 8bbb
000003c0: ee47 45bd 1cad b93b 6318 68bc 6318 68bd
000003d0: 4a12 aebd 0000 0000 917d dcbd 5bc3 993d
000003e0: 1cad b9ba 6318 e83b 10aa 9c3d 28b0 56bd
000003f0: 1cad b9ba dd96 d93d 6318 68bd 35b3 f3bc
