project/backend/fpga_complier/q_paras/conv_9.convs.0.weight.int.npy (npy, 36992 bytes, 1 tensors)

array i1 [64, 64, 3, 3]
00000000: 26f0 281a cf04 25bf 030d f433 10f5 d321
00000010: 18ea 4618 fe27 f321 0e10 1eec 3624 d7d5
00000020: 2dfe f82c 121d e9c2 051b fc0a 233f def5
00000030: 040a 3cbf ecf7 11fb e7d0 39fe 0512 e911
00000040: f8f5 1319 24e8 e8d1 f026 27e6 0402 e0ef
00000050: fbfd ee1d ffeb 03df 0d33 f7f2 36fc ea27
00000060: 02f4 ef1e 0cd6 ef07 16b7 dd19 e010 c211
00000070: fd26 0afa d2de 06cb 071e 4eeb daf5 dd26
00000080: cebf fed3 2cf7 fee6 d828 31de 35bd 011c
00000090: fcf6 38f0 f4e3 2cde d610 17d3 4b03 e929
000000a0: ff02 a9d3 eddd e5cf 00cb 0f09 0612 0813
000000b0: 003d 1938 f521 3e12 fb06 ebdc fe45 2e00
000000c0: bf4b 3315 f52e f2c5 dad4 1ec9 54e2 ff0d
000000d0: 16c2 1515 d00c c2cd e60e f8f5 c2e4 fd96
000000e0: ff42 0017 1e02 03c9 2303 f8fd 10ef 0210
000000f0: faf6 f22d fdee c410 39f7 2de0 f6de 15ee
38 -16 40 26 -49 4 37 -65
3 13 -12 51 16 -11 -45 33
24 -22 70 24 -2 39 -13 33
14 16 30 -20 54 36 -41 -43
45 -2 -8 44 18 29 -23 -62
5 27 -4 10 35 63 -34 -11
4 10 60 -65 -20 -9 17 -5
-25 -48 57 -2 5 18 -23 17
-8 -11 19 25 36 -24 -24 -47
-16 38 39 -26 4 2 -32 -17
-5 -3 -18 29 -1 -21 3 -33
13 51 -9 -14 54 -4 -22 39
2 -12 -17 30 12 -42 -17 7
22 -73 -35 25 -32 16 -62 17
-3 38 10 -6 -46 -34 6 -53
7 30 78 -21 -38 -11 -35 38
-50 -65 -2 -45 44 -9 -2 -26
-40 40 49 -34 53 -67 1 28
-4 -10 56 -16 -12 -29 44 -34
-42 16 23 -45 75 3 -23 41
-1 2 -87 -45 -19 -35 -27 -49
0 -53 15 9 6 18 8 19
0 61 25 56 -11 33 62 18
-5 6 -21 -36 -2 69 46 0
-65 75 51 21 -11 46 -14 -59
-38 -44 30 -55 84 -30 -1 13
22 -62 21 21 -48 12 -62 -51
-26 14 -8 -11 -62 -28 -3 -106
-1 66 0 23 30 2 3 -55
35 3 -8 -3 16 -17 2 16
-6 -10 -14 45 -3 -18 -60 16
57 -9 45 -32 -10 -34 21 -18
