project/backend/fpga_complier/q_paras/conv_15.convs.0.weight.npy (npy, 242048 bytes, 1 tensors)

array f4 [120, 56, 3, 3]
000000 31 57 a5 bd d8 17 99 bd 31 57 25 3e 8f f5 c3 bd
       -0.08073271 -0.07475251 0.16146542 -0.09568321
000010 7f d8 8c bd dd 76 2b 3d 36 b6 37 3d 2b f8 12 3d
       -0.06877231 0.041861404 0.044851504 0.035881203
000020 01 08 16 3e 8a 96 31 be 8a 96 b1 be 5a 47 22 be
       0.14651491 -0.17342582 -0.34685165 -0.15847531
000030 8a 96 b1 be d2 b8 86 3d 41 74 dc 3d f3 f2 74 3d
       -0.34685165 0.065782204 0.10764361 0.059802007
000040 fc a8 03 3e 55 e8 0f 3e 36 b6 37 bd 94 54 d6 3d
       0.12857431 0.14053471 -0.044851504 0.10465351
000050 f3 f2 74 bc e8 34 50 bd fc a8 83 3e dd 76 ab 3d
       -0.014950502 -0.050831705 0.25714862 0.08372281
000060 f3 f2 f4 bc a9 c8 09 3e 6f bf a0 be 8f f5 43 3d
       -0.029901003 0.13455452 -0.31396052 0.047841605
000070 fc a8 03 3e d2 b8 06 3d 9a b3 68 be 84 37 9f 3e
       0.12857431 0.032891102 -0.22724763 0.31097043
000080 31 57 25 3e d2 b8 06 bd 7f d8 8c 3e 8f f5 c3 bc
       0.16146542 -0.032891102 0.27508923 -0.023920802
000090 26 99 80 3d c4 a3 65 3e 8f f5 43 bb 55 e8 8f 3e
       0.06279211 0.22425753 -0.0029901003 0.28106943
0000a0 94 54 56 be 55 e8 0f be 60 a6 34 3e e8 34 d0 bd
       -0.20930701 -0.14053471 0.17641592 -0.10166341
0000b0 e8 34 50 bd 46 d3 ee 3d 2b f8 92 bc d2 b8 86 bd
       -0.050831705 0.11661391 -0.017940601 -0.065782204
0000c0 84 37 9f bd 8f f5 c3 bb d8 17 99 bd e8 34 d0 3d
       -0.07774261 -0.0059802006 -0.07475251 0.10166341
0000d0 26 99 00 3e 01 08 16 be 41 74 dc 3c dd 76 ab 3c
       0.12558421 -0.14651491 0.026910903 0.020930702
0000e0 8a 96 b1 bd d2 b8 06 be 84 37 9f 3d 8f f5 43 3d
       -0.08671291 -0.13156441 0.07774261 0.047841605
0000f0 e3 d5 3d 3e 01 08 96 3e d2 b8 06 bd 36 b6 b7 bd
       0.18538623 0.29302981 -0.032891102 -0.08970301
000100 9f 12 fb 3d 5a 47 22 3e dd 76 2b 3d 01 08 16 3e
       0.12259411 0.15847531 0.041861404 0.14651491
000110 7f d8 0c be f3 f2 f4 3c 9a b3 e8 bd e3 d5 3d be
       -0.13754462 0.029901003 -0.11362381 -0.18538623
000120 ed 93 e2 3d 36 b6 37 be 2b f8 92 bd dd 76 ab 3d
       0.11063371 -0.17940602 -0.071762405 0.08372281
000130 8f f5 43 bd dd 76 2b bd f3 f2 74 bd f3 f2 74 be
       -0.047841605 -0.041861404 -0.059802007 -0.23920803
000140 26 99 80 bd ae 27 1c be 26 99 80 bd 26 99 00 3e
       -0.06279211 -0.15249512 -0.06279211 0.12558421
000150 84 37 9f bd d2 b8 06 3e 36 b6 b7 bd 8f f5 c3 bd
       -0.07774261 0.13156441 -0.08970301 -0.09568321
000160 d2 b8 06 3d d8 17 99 bd f3 f2 74 3c 01 08 16 be
       0.032891102 -0.07475251 0.014950502 -0.14651491
000170 dd 76 2b 3d f3 f2 74 3c 6b 64 59 be e3 d5 bd bd
       0.041861404 0.014950502 -0.21229713 -0.09269311
000180 d2 b8 86 bd 7f d8 8c 3d 46 d3 ee bd 2b f8 92 bd
       -0.065782204 0.06877231 -0.11661391 -0.071762405
000190 b3 86 ae 3e 26 99 80 bd 84 37 1f be 8f f5 43 bb
       0.34087142 -0.06279211 -0.15548521 -0.0029901003
0001a0 e8 34 50 3e 31 57 25 be b3 86 2e be d8 17 19 3e
       0.20332682 -0.16146542 -0.17043571 0.14950502
0001b0 36 b6 37 bd 26 99 00 be 07 67 28 be 7f d8 8c bd
       -0.044851504 -0.12558421 -0.16445552 -0.06877231
0001c0 b3 86 2e be 7f d8 8c 3d f3 f2 f4 3d 8f f5 c3 3b
       -0.17043571 0.06877231 0.119604014 0.0059802006
0001d0 46 d3 ee bd 60 a6 34 be 8a 96 b1 bd f3 f2 74 bc
       -0.11661391 -0.17641592 -0.08671291 -0.014950502
0001e0 31 57 a5 3d f3 f2 74 be 41 74 dc 3d 26 99 80 3d
       0.08073271 -0.23920803 0.10764361 0.06279211
0001f0 d2 b8 06 3d dd 76 2b bd 8f f5 43 3d 84 37 1f bd
       0.032891102 -0.041861404 0.047841605 -0.038871303
000200 41 74 dc 3c d8 17 99 3d 31 57 a5 3e 8f f5 43 bb
       0.026910903 0.07475251 0.32293084 -0.0029901003
000210 2b f8 12 be d8 17 99 3d fc a8 83 be d8 17 19 3e
       -0.14352481 0.07475251 -0.25714862 0.14950502
000220 26 99 80 3d f3 f2 f4 bc 7f d8 0c 3e f3 f2 74 3c
       0.06279211 -0.029901003 0.13754462 0.014950502
000230 46 d3 ee 3d c4 a3 65 be dd 76 ab 3d f3 f2 74 bd
       0.11661391 -0.22425753 0.08372281 -0.059802007
000240 a9 c8 89 be 84 37 1f 3e 9a b3 68 3d 3b 15 ca 3d
       -0.26910904 0.15548521 0.056811906 0.09867331
000250 f3 f2 f4 3c 41 74 dc 3c ae 27 1c be dd 76 2b bd
       0.029901003 0.026910903 -0.15249512 -0.041861404
000260 f3 f2 f4 bd 26 99 00 3e f3 f2 f4 bc dd 76 2b 3d
       -0.119604014 0.12558421 -0.029901003 0.041861404
000270 dd 76 ab be 8a 96 31 be d8 17 19 3e e3 d5 bd 3d
       -0.33489123 -0.17342582 0.14950502 0.09269311
000280 e8 34 d0 bd dd 76 2b 3d 46 d3 ee 3d 31 57 25 be
       -0.10166341 0.041861404 0.11661391 -0.16146542
000290 07 67 28 be 7f d8 0c 3e 5a 47 22 be 36 b6 37 3d
       -0.16445552 0.13754462 -0.15847531 0.044851504
0002a0 3b 15 ca bd dd 76 2b 3d f3 f2 74 3d 2b f8 12 bd
       -0.09867331 0.041861404 0.059802007 -0.035881203
0002b0 f3 f2 74 3d 26 99 00 3e f3 f2 f4 3d 3b 15 4a be
       0.059802007 0.12558421 0.119604014 -0.19734661
0002c0 65 05 47 be 2b f8 92 3c 9a b3 68 bd 8a 96 b1 3d
       -0.19435652 0.017940601 -0.056811906 0.08671291
0002d0 dd 76 ab bd 6b 64 59 be 3b 15 ca bd 2b f8 92 3d
       -0.08372281 -0.21229713 -0.09867331 0.071762405
0002e0 d2 b8 06 bd d2 b8 86 bd 2b f8 92 3d e3 d5 bd be
       -0.032891102 -0.065782204 0.071762405 -0.37077245
0002f0 41 74 dc bd e8 34 d0 bd 2b f8 12 bc 31 57 a5 3d
       -0.10764361 -0.10166341 -0.008970301 0.08073271
000300 8f f5 43 3b 01 08 16 3e 2b f8 12 3c d2 b8 86 3d
       0.0029901003 0.14651491 0.008970301 0.065782204
000310 31 57 25 be 36 b6 b7 3d f3 f2 74 3d 5a 47 22 be
       -0.16146542 0.08970301 0.059802007 -0.15847531
000320 2b f8 12 bc 8f f5 c3 3d 8f f5 c3 bb 94 54 d6 3d
       -0.008970301 0.09568321 -0.0059802006 0.10465351
000330 8f f5 43 3c 9a b3 68 bd e3 d5 3d be f3 f2 f4 bd
       0.011960401 -0.056811906 -0.18538623 -0.119604014
000340 a4 6d c2 3e 94 54 d6 bd e3 d5 3d 3e 60 a6 34 3e
       0.37974274 -0.10465351 0.18538623 0.17641592
000350 60 a6 34 3e 84 37 1f be 9a b3 68 bd 2b f8 92 3d
       0.17641592 -0.15548521 -0.056811906 0.071762405
000360 6b 64 59 be 36 b6 37 bd d2 b8 86 be 26 99 80 bd
       -0.21229713 -0.044851504 -0.26312882 -0.06279211
000370 e8 34 50 3e 8a 96 b1 3d 26 99 80 bd 84 37 1f bd
       0.20332682 0.08671291 -0.06279211 -0.038871303
000380 f3 f2 74 bc c4 a3 65 3e 8f f5 43 3c 7f d8 0c be
       -0.014950502 0.22425753 0.011960401 -0.13754462
000390 2b f8 92 bc 36 b6 37 bd 1d e3 71 be fc a8 03 be
       -0.017940601 -0.044851504 -0.23621793 -0.12857431
0003a0 84 37 1f bd 41 74 5c bd 8f f5 43 3d 8f f5 43 3e
       -0.038871303 -0.053821806 0.047841605 0.19136642
0003b0 b9 e5 40 3e 8f f5 c3 3c e3 d5 bd 3d 2b f8 92 bc
       0.18837632 0.023920802 0.09269311 -0.017940601
0003c0 e8 34 d0 bd 41 74 5c bd 2b f8 92 bc e8 34 50 3e
       -0.10166341 -0.053821806 -0.017940601 0.20332682
0003d0 6b 64 59 be 9f 12 fb bd 8f f5 43 bc 26 99 80 bd
       -0.21229713 -0.12259411 -0.011960401 -0.06279211
0003e0 e3 d5 bd 3d 8f f5 43 3c 9a b3 68 3d ae 27 1c be
       0.09269311 0.011960401 0.056811906 -0.15249512
0003f0 e3 d5 bd bd 31 57 25 3e 41 74 dc 3c e7 30 85 3e
       -0.09269311 0.16146542 0.026910903 0.26013872
