project/backend/fpga_complier/q_paras/conv_13.convs.0.weight.int.npy (npy, 36416 bytes, 1 tensors)

array i1 [56, 72, 3, 3]
000000 d4 dc 09 02 39 38 e6 23 15 0e 16 f1 39 e0 0d f9
       -44 -36 9 2 57 56 -26 35 21 14 22 -15 57 -32 13 -7
000010 e6 f5 ef e3 ff 27 bc 03 e6 eb ed e7 ed 23 f9 e8
       -26 -11 -17 -29 -1 39 -68 3 -26 -21 -19 -25 -19 35 -7 -24
000020 0d 08 02 05 fe cd f4 dd db 02 f2 bf ea 37 0c 16
       13 8 2 5 -2 -51 -12 -35 -37 2 -14 -65 -22 55 12 22
000030 1d 1e 17 1a eb ef f0 e8 03 02 04 0b d3 e2 38 ea
       29 30 23 26 -21 -17 -16 -24 3 2 4 11 -45 -30 56 -22
000040 da 03 d0 07 f0 bf 05 27 f7 f7 2f 15 e7 ee 1d 31
       -38 3 -48 7 -16 -65 5 39 -9 -9 47 21 -25 -18 29 49
000050 ef 12 28 33 ef f9 01 f3 01 f9 c6 e6 ef 11 dc f9
       -17 18 40 51 -17 -7 1 -13 1 -7 -58 -26 -17 17 -36 -7
000060 fa 0b d7 15 e4 f0 1a 05 f5 bb 0b e5 f8 ec 23 f8
       -6 11 -41 21 -28 -16 26 5 -11 -69 11 -27 -8 -20 35 -8
000070 30 ff 30 1e e4 0f 15 d5 0f fd 17 13 31 02 fb 01
       48 -1 48 30 -28 15 21 -43 15 -3 23 19 49 2 -5 1
000080 e3 0f e0 bf e3 09 e4 37 03 ce fa de fa 38 13 19
       -29 15 -32 -65 -29 9 -28 55 3 -50 -6 -34 -6 56 19 25
000090 e2 f0 0f 0f fb 28 15 fb d1 03 f9 18 09 f4 3c df
       -30 -16 15 15 -5 40 21 -5 -47 3 -7 24 9 -12 60 -33
0000a0 1e fb 09 c5 fe 4b 24 c3 14 09 0f fe 18 34 04 28
       30 -5 9 -59 -2 75 36 -61 20 9 15 -2 24 52 4 40
0000b0 e8 fb c8 30 11 00 04 e2 0a 1b 1c 07 0d e6 33 2e
       -24 -5 -56 48 17 0 4 -30 10 27 28 7 13 -26 51 46
0000c0 06 15 fc e0 e1 ef 02 ea f4 3d c5 fe f9 2a 23 02
       6 21 -4 -32 -31 -17 2 -22 -12 61 -59 -2 -7 42 35 2
0000d0 0c e7 d2 f2 0d ef ed 36 f3 0f 13 f5 b5 0f 01 ed
       12 -25 -46 -14 13 -17 -19 54 -13 15 19 -11 -75 15 1 -19
0000e0 f8 d5 fa 0f 0d e2 14 e5 31 d5 d7 f8 04 dc 08 05
       -8 -43 -6 15 13 -30 20 -27 49 -43 -41 -8 4 -36 8 5
0000f0 dd fe 41 10 f5 05 0c 25 2a 35 02 e8 06 27 19 f4
       -35 -2 65 16 -11 5 12 37 42 53 2 -24 6 39 25 -12
