project/backend/fpga_complier/q_paras/conv_1.convs.0.weight.npy (npy, 4736 bytes, 1 tensors)

array f4 [16, 8, 3, 3]
-0.8650463 0.087476596 -0.55401844 -0.43738297 1.0205603 0.7386912 0.038878486 -0.6706539
0.26242977 -1.2441115 0.66093427 -0.15551394 -0.11663546 0.24299054 -0.8261678 0.3207475
-0.47626144 -0.96224254 -0.66093427 0.12635508 0.019439243 1.0691583 -0.097196214 -0.29158863
0.5928969 0.8650463 -0.4082241 0.15551394 -0.88448554 -0.28186902 -0.30130827 -0.33046713
-0.90392476 -0.12635508 0.54429877 0.45682222 0.92336404 -0.29158863 0.3693456 0.019439243
0.30130827 0.11663546 -0.009719621 -0.53457916 1.0983173 -0.58317727 -0.12635508 -0.05831773
-0.07775697 0.10691583 0.21383166 -0.12635508 0.87476593 0.0 -0.56373805 -1.0108407
0.66093427 0.07775697 0.07775697 -0.47626144 0.029158864 -0.087476596 0.21383166 -0.7095324
-0.009719621 0.17495319 0.7678501 -0.30130827 -0.12635508 0.22355129 -0.92336404 0.19439243
0.10508837 0.14011782 -0.31526512 0.31526512 0.22185323 -0.31526512 0.42035347 0.42035347
-0.30358863 0.21017674 -0.5371183 -0.5604713 1.0041778 0.67723614 -0.7005891 -1.2493839
0.14011782 -0.9107659 0.61885375 -0.19850026 0.80567753 -0.28023565 -0.7472951 -1.0041778
0.6538832 0.78232455 -0.17514728 0.19850026 -1.4945902 0.5487948 -0.1634708 -0.44370645
0.96914834 0.6538832 -0.5838243 0.42035347 1.0859132 0.093411885 -0.28023565 -0.22185323
0.35029456 -1.0158542 0.046705943 0.30358863 -0.22185323 0.5254418 0.5254418 -0.79400104
0.35029456 -0.21017674 -0.5020889 -0.36197105 0.60717726 -1.4712372 0.7589716 0.05838243
0.6538832 0.5020889 0.0 0.11676486 0.45538294 -0.6422067 -0.6422067 -0.5487948
0.10508837 -0.21017674 -0.44370645 -0.14011782 0.10508837 -0.5721478 1.1326191 0.35029456
-0.7019497 -0.3733775 -0.00746755 0.32110465 0.8886385 0.149351 -0.21655896 0.813963
0.5525987 0.35844243 0.1941563 -0.30616957 0.61233914 0.1194808 -0.26883182 0.7019497
-0.2389616 -0.4779232 0.15681855 -0.13441591 -0.052272853 0.149351 -0.03733775 0.03733775
-0.03733775 0.17922121 0.17922121 0.5077934 -0.8214305 -0.4629881 -0.0746755 -0.08961061
0.08214305 -0.15681855 -0.08961061 -0.2538967 -0.515261 -0.0298702 -0.36590996 -0.35844243
-0.12694836 -0.6422093 -0.15681855 -0.20909141 0.50032586 -0.50032586 0.08961061 0.64967686
0.42565036 0.2240265 0.00746755 0.7318199 0.03733775 -0.6720795 -0.38084507 0.1194808
-0.5525987 0.298702 0.18668875 -0.104545705 -0.6795471 0.2538967 0.13441591 -0.27629936
-0.34350732 0.03733775 0.0 -0.9558464 -0.9035736 -0.42565036 -0.515261 -0.6048716
0.39090595 1.0825088 -1.3681709 -0.3458014 1.3832057 0.481115 -0.30069688 -1.92446
-0.481115 -0.60139376 1.1426481 0.87202096 0.16538328 0.57132405 -0.52621955 -1.2178224
-0.09020907 0.0 0.57132405 -0.6615331 0.52621955 -0.4059408 0.76677704 1.3681709
0.18041813 0.52621955 0.12027875 0.28566203 0.045104533 0.6464983 -0.15034844 0.12027875
-0.21048781 -0.45104533 0.79684675 0.6164286 0.15034844 0.22552267 -1.4583799 1.3681709
00000000: ad73 5dbf ee26 b33d 27d4 0dbf a9f0 dfbe
00000010: b8a1 823f de1a 3d3f 0c3f 1f3d f9af 2bbf
00000020: 325d 863e 0c3f 9fbf fd32 293f 0c3f 1fbe
00000030: 92de eebd 83d2 783e bc7f 53bf 0439 a43e
00000040: 8ad8 f3be 8755 76bf fd32 29bf 3a63 013e
00000050: 0c3f 9f3c 2eda 883f cf0e c7bd 1b4b 95be
00000060: 17c8 173f ad73 5d3f c002 d1be 0c3f 1f3e
00000070: a56d 62bf 2351 90be 1445 9abe fd32 a9be
00000080: 9d67 67bf 3a63 01be 2a57 0b3f 9ae4 e93e
00000090: 9661 6c3f 1b4b 95be de1a bd3e 0c3f 9f3c
000000a0: 1445 9a3e 92de ee3d 0c3f 1fbc 2eda 08bf
000000b0: a995 8c3f 1b4b 15bf 3a63 01be 92de 6ebd
000000c0: 0c3f 9fbd b0f6 da3d b0f6 5a3e 3a63 01be
000000d0: a9f0 5f3f 0000 0000 2351 10bf 3a63 81bf
000000e0: fd32 293f 0c3f 9f3d 0c3f 9f3d 8ad8 f3be
000000f0: 92de ee3c ee26 b3bd b0f6 5a3e eaa3 35bf
00000100: 0c3f 1fbc ee26 333e d391 443f 1445 9abe
00000110: 3a63 01be a1ea 643e 9661 6cbf cf0e 473e
00000120: 9238 d73d 0c7b 0f3e 6e6a a1be 6e6a a13e
00000130: 7e2d 633e 6e6a a1be 9238 d73e 9238 d73e
00000140: f86f 9bbe 9238 573e 9680 09bf 0c7b 0fbf
00000150: e688 803f 595f 2d3f cf59 33bf d0eb 9fbf
00000160: 0c7b 0f3e f427 69bf 336d 1e3f a743 4bbe
00000170: e240 4e3f 0c7b 8fbe bb4e 3fbf e688 80bf
00000180: e464 273f 6c46 483f cf59 33be a743 4b3e
00000190: bb4e bfbf d17d 0c3f e464 27be 7e2d e3be
000001a0: 1b1a 783f e464 273f 8275 15bf 9238 d73e
000001b0: 34ff 8a3f bb4e bf3d 0c7b 8fbe 7e2d 63be
000001c0: cf59 b33e 8307 82bf bb4e 3f3d f86f 9b3e
000001d0: 7e2d 63be 5b83 063f 5b83 063f a743 4bbf
000001e0: cf59 b33e 9238 57be e688 00bf 4554 b9be
000001f0: f86f 1b3f 8051 bcbf f64b 423f 6a22 6f3d
00000200: e464 273f e688 003f 0000 0000 6a22 ef3d
00000210: f427 e93e a967 24bf a967 24bf d17d 0cbf
00000220: 9238 d73d 9238 57be 7e2d e3be 0c7b 0fbe
00000230: 9238 d73d 4778 12bf aaf9 903f cf59 b33e
00000240: fab2 33bf 562b bfbe 5ab2 f4bb d467 a43e
00000250: d07d 633f 78ef 183e a2c1 5dbe e15f 503f
00000260: 1c77 0d3f c485 b73e e9d0 463e 42c2 9cbe
00000270: 42c2 1c3f 5ab2 f43d 53a4 89be fab2 333f
00000280: 5ab2 74be 5ab2 f4be 0b95 203e 53a4 09be
00000290: 0f1c 56bd 78ef 183e 78ef 18bd 78ef 183d
000002a0: 78ef 18bd c485 373e c485 373e c0fe 013f
000002b0: 4549 52bf c70c edbe 78ef 98bd c485 b7bd
000002c0: 9e3a a83d 0b95 20be c485 b7bd c0fe 81be
000002d0: 25e8 03bf 5ab2 f4bc 8d58 bbbe c485 b7be
000002e0: c0fe 01be d467 24bf 0b95 20be 0f1c 56be
000002f0: 5b15 003f 5b15 00bf c485 b73d 3951 263f
00000300: d8ee d93e 3467 653e 5ab2 f43b 8d58 3b3f
00000310: 78ef 183d 670d 2cbf 20fe c2be 5ab2 f43d
00000320: 1c77 0dbf 78ef 983e 562b 3f3e 0f1c d6bd
00000330: ccf6 2dbf c0fe 813e 53a4 093e 1c77 8dbe
00000340: 31e0 afbe 78ef 183d 0000 0000 5ab2 74bf
00000350: 9950 67bf d8ee d9be 25e8 03bf ddd8 1abf
00000360: d324 c83e a68f 8a3f 3920 afbf e20c b1be
00000370: e20c b13f b554 f63e f1f4 99be b554 f6bf
00000380: b554 f6be f1f4 19bf 4b42 923f c43c 5f3f
00000390: 3c5a 293e 4b42 123f 53b6 06bf 9be1 9bbf
000003a0: 88bf b8bd 0000 0000 4b42 123f 3c5a 29bf
000003b0: 53b6 063f 79d7 cfbe 804b 443f 3920 af3f
000003c0: 88bf 383e 53b6 063f b554 f63d 4b42 923e
000003d0: 88bf 383d ea80 253f f1f4 19be b554 f63d
000003e0: 1e8a 57be 6aef e6be 26fe 4b3f 44ce 1d3f
000003f0: f1f4 193e 6aef 663e 31ac babf 3920 af3f
