project/backend/fpga_complier/q_paras/conv_15.convs.0.weight.int.npy (npy, 60608 bytes, 1 tensors)

array i1 [120, 56, 3, 3]
-27 -25 54 -32 -23 14 15 12
49 -58 -116 -53 -116 22 36 20
43 47 -15 35 -5 -17 86 28
-10 45 -105 16 43 11 -76 104
54 -11 92 -8 21 75 -1 94
-70 -47 59 -34 -17 39 -6 -22
-26 -2 -25 34 42 -49 9 7
-29 -44 26 16 62 98 -11 -30
41 53 14 49 -46 10 -38 -62
37 -60 -24 28 -16 -14 -20 -80
-21 -51 -21 42 -26 44 -30 -32
11 -25 5 -49 14 5 -71 -31
-22 23 -39 -24 114 -21 -52 -1
68 -54 -57 50 -15 -42 -55 -23
-57 23 40 2 -39 -59 -29 -5
27 -80 36 21 11 -14 16 -13
9 25 108 -1 -48 25 -86 50
21 -10 46 5 39 -75 28 -20
-90 52 19 33 10 9 -51 -14
-40 42 -10 14 -112 -58 50 31
-34 14 39 -54 -55 46 -53 15
-33 14 20 -12 20 42 40 -66
-65 6 -19 29 -28 -71 -33 24
-11 -22 24 -124 -36 -34 -3 27
1 49 3 22 -54 30 20 -53
-3 32 -2 35 4 -19 -62 -40
127 -35 62 59 59 -52 -19 24
-71 -15 -88 -21 68 29 -21 -13
-5 75 4 -46 -6 -15 -79 -43
-13 -18 16 64 63 8 31 -6
-34 -18 -6 68 -71 -41 -4 -21
31 4 19 -51 -31 54 9 87
00000000: e5e7 36e0 e90e 0f0c 31c6 8ccb 8c16 2414
00000010: 2b2f f123 fbef 561c f62d 9710 2b0b b468
00000020: 36f5 5cf8 154b ff5e bad1 3bde ef27 faea
00000030: e6fe e722 2acf 0907 e3d4 1a10 3e62 f5e2
00000040: 2935 0e31 d20a dac2 25c4 e81c f0f2 ecb0
00000050: ebcd eb2a e62c e2e0 0be7 05cf 0e05 b9e1
00000060: ea17 d9e8 72eb ccff 44ca c732 f1d6 c9e9
00000070: c717 2802 d9c5 e3fb 1bb0 2415 0bf2 10f3
00000080: 0919 6cff d019 aa32 15f6 2e05 27b5 1cec
00000090: a634 1321 0a09 cdf2 d82a f60e 90c6 321f
000000a0: de0e 27ca c92e cb0f df0e 14f4 142a 28be
000000b0: bf06 ed1d e4b9 df18 f5ea 1884 dcde fd1b
000000c0: 0131 0316 ca1e 14cb fd20 fe23 04ed c2d8
000000d0: 7fdd 3e3b 3bcc ed18 b9f1 a8eb 441d ebf3
000000e0: fb4b 04d2 faf1 b1d5 f3ee 1040 3f08 1ffa
000000f0: deee fa44 b9d7 fceb 1f04 13cd e136 0957
