project/backend/fpga_complier/q_paras/conv_4.convs.0.weight.npy (npy, 23168 bytes, 1 tensors)

array f4 [40, 16, 3, 3]
00000000: 2186 9c3d 3bfa a3bd a2ca c1bd 0712 153d
00000010: e0e3 09be fa57 11be d6b2 d03d 0712 95bc
00000020: 726b 7d3d 3e83 6ebd 5b4b adbe a2ca 413e
00000030: 2186 9c3e 9510 3e3e d6b2 d0bc 3e83 6ebb
00000040: 2186 9c3e 58f7 753e 0712 95bc 6ee2 32bd
00000050: 556e ab3d 0712 15bd c66f 82be 14cc 18be
00000060: d6b2 d03d 0712 953d e36c 543e 726b 7dbd
00000070: d6b2 50be bc3e 49be cc4c 84be 0712 153d
00000080: fde0 5bbe fa57 11be 2186 9cbd e0e3 09be
00000090: 9510 3ebe 3e83 6ebe 0000 0000 2e40 203e
000000a0: 38a6 ec3e ed9d 8d3d 3e83 eebc fde0 5b3e
000000b0: 58f7 f5bd 2186 9cbd 4e91 a9be fde0 5b3e
000000c0: 0035 93be d6b2 503d 7b9c b63e ed9d 8dbe
000000d0: 6ee2 b23c 3bfa a3be 556e 2bbe 0712 153e
000000e0: 3e83 ee3c bc3e c9bd d329 063d 6ee2 b23d
000000f0: 2e40 20be 556e abbd 48b4 273e f37a 8f3e
00000100: ed9d 0dbe 3e83 eebc d6b2 d03d 726b fdbd
00000110: 6ee2 b23e 58f7 f5bd 6ee2 b2be 556e 2b3e
00000120: 3e83 6e3d af84 45be 9510 3e3e fde0 5b3e
00000130: 726b 7d3e d329 86bd 3bfa 233e 3bfa 233d
00000140: 3bfa a33d 2186 1c3e e0e3 89be 6228 2fbe
00000150: 0712 953c 0712 953c e0e3 09be 0a9b dfbd
00000160: 65b1 79be 2763 9ebe 341d a2be d6b2 d0bc
00000170: d329 86bd 556e ab3d 0712 953c 6228 afbe
00000180: 3e83 6e3b 2186 9c3d af84 45be 0712 95bc
00000190: d6b2 50bd 0a9b dfbd 6ee2 323e 3e83 6ebc
000001a0: d329 063e c9f8 4c3e a9a7 c3be 726b 7dbd
000001b0: 6228 afbe 3e83 6ebb 6ee2 b2bd a2ca c1be
000001c0: 5b4b ad3e d0d5 ce3e bc3e c9bd 0a9b dfbd
000001d0: 0712 153e 2186 1c3e c9f8 4c3e 3bfa 23be
000001e0: 6ee2 32bd 240f 673e 3e83 eebc a2ca c1bd
000001f0: d6b2 d03d f37a 8f3e 556e ab3d 0712 953e
00000200: 0712 95bd 6805 b13e 1755 633e bc3e c93e
00000210: d329 86bd 3e83 ee3b 6ee2 32be a2ca 413d
00000220: 7b9c 363e bf92 80be 0712 953e 8856 ba3e
00000230: 6ee2 32bd 2186 1c3e 3e83 6e3b f026 d83e
00000240: 0fc2 b1bc 2718 17be 464f d53c d934 8e3d
00000250: 32c3 893e 464f 55bd f86b 4cbe 74fb 9fbe
00000260: 80a6 12be e115 673d d934 8ebc 5f8a 87be
00000270: 2718 17be 8b51 85bd f86b cc3d 6850 2d3e
00000280: 464f 55bc fa50 99be 0fc2 31be 464f 55bc
00000290: 464f d53c 0417 3f3e 1988 d73e 9fdd 503e
000002a0: 464f d53c 0232 f23e 7cdc f83c 2718 17be
000002b0: 2533 ca3e 74fb 1fbe 32c3 093e 0fc2 b1bc
000002c0: 0fc2 b1bc d56a 74be 32c3 093e 8787 6bbe
000002d0: 4efc 013f 0fc2 b1bd 8b51 85be 53df 94be
000002e0: 464f 553e c2de a83d 51fa 473e e115 673e
000002f0: 9332 de3d 464f 553c b818 83be 5da5 ba3d
00000300: 74fb 1fbe 464f d5be e5df 803e 74fb 9fbd
00000310: e115 e73d 6850 2d3e e115 673d 74fb 1f3d
00000320: 464f d5be c2de 28be b633 36be e115 673d
00000330: 7ec1 c53e 0fc2 b13c e115 e73d d934 8ebb
00000340: 74fb 9fbd b818 833e 464f 553c 7cdc f8bd
00000350: 51fa 473e 9332 de3d d934 8ebe d934 0ebd
00000360: aa88 43bd 0417 3f3e 7cdc f83c ecc0 59be
00000370: 0fc2 b1bd 2718 97bd 7ec1 c5be d934 0ebc
00000380: 0417 3fbe 0fc2 b13d d934 8e3d 1b6d 24be
00000390: e115 673d 0417 bfbe 2718 97be 0fc2 b13e
000003a0: 0fc2 313d 464f d5bc d934 8ebd 8b51 053e
000003b0: 0fc2 b13c 6f18 0d3f d934 8e3c 8b51 85bd
000003c0: 74fb 9f3d 2718 17be 74fb 9f3d d934 0e3d
000003d0: cd89 1b3e e5df 003e c2de a8bd d934 0ebd
000003e0: 464f d53c 80a6 123e 5da5 ba3d 2718 97be
000003f0: 0fc2 b13c 4834 a2be e5df 00be cd89 1b3e
0.076427706 -0.08006712 -0.09462477 0.036394145 -0.13465834 -0.14193717 0.1019036 -0.018197073
0.061870046 -0.05823063 -0.33846554 0.18924955 0.30571082 0.18561013 -0.0254759 -0.0036394144
0.30571082 0.24020135 -0.018197073 -0.04367297 0.083706535 -0.036394145 -0.254759 -0.149216
0.1019036 0.07278829 0.20744662 -0.061870046 -0.2038072 -0.19652838 -0.2583984 0.036394145
-0.21472545 -0.14193717 -0.076427706 -0.13465834 -0.18561013 -0.23292252 0.0 0.15649483
0.46220565 0.069148876 -0.029115316 0.21472545 -0.12010068 -0.076427706 -0.3311867 0.21472545
-0.28751373 0.0509518 0.3566626 -0.2765955 0.021836486 -0.32026848 -0.16741307 0.14557658
0.029115316 -0.09826419 0.03275473 0.08734594 -0.15649483 -0.083706535 0.16377366 0.2802349
-0.13829775 -0.029115316 0.1019036 -0.12374009 0.34938377 -0.12010068 -0.34938377 0.16741307
0.05823063 -0.19288896 0.18561013 0.21472545 0.24748018 -0.06550946 0.16013424 0.04003356
0.08006712 0.15285541 -0.26931667 -0.17105249 0.018197073 0.018197073 -0.13465834 -0.10918243
-0.24384077 -0.30935022 -0.31662905 -0.0254759 -0.06550946 0.083706535 0.018197073 -0.34210497
0.0036394144 0.076427706 -0.19288896 -0.018197073 -0.0509518 -0.10918243 0.17469189 -0.014557658
0.13101892 0.20016779 -0.38213852 -0.061870046 -0.34210497 -0.0036394144 -0.08734594 -0.3784991
0.33846554 0.403975 -0.09826419 -0.10918243 0.14557658 0.15285541 0.20016779 -0.16013424
-0.04367297 0.2256437 -0.029115316 -0.09462477 0.1019036 0.2802349 0.083706535 0.29115316
-0.07278829 0.34574437 0.22200428 0.39305675 -0.06550946 0.007278829 -0.17469189 0.047312386
0.1783313 -0.25111958 0.29115316 0.36394143 -0.04367297 0.15285541 0.0036394144 0.42217207
-0.02169898 -0.14755307 0.026038777 0.06943674 0.26906735 -0.052077554 -0.19963062 -0.3124653
-0.14321327 0.05641735 -0.017359184 -0.26472756 -0.14755307 -0.06509694 0.09981531 0.16925204
-0.013019389 -0.29944593 -0.17359184 -0.013019389 0.026038777 0.18661124 0.42096022 0.20397042
0.026038777 0.47303778 0.030378573 -0.14755307 0.39492145 -0.15623266 0.13453367 -0.02169898
-0.02169898 -0.23868878 0.13453367 -0.23000918 0.5077561 -0.08679592 -0.26038775 -0.29076633
0.20831022 0.08245613 0.19529082 0.2256694 0.1084949 0.013019389 -0.25604796 0.09113572
-0.15623266 -0.41662043 0.25170818 -0.07811633 0.1128347 0.16925204 0.05641735 0.039058164
-0.41662043 -0.16491225 -0.17793164 0.05641735 0.38624185 0.02169898 0.1128347 -0.004339796
-0.07811633 0.25604796 0.013019389 -0.12151429 0.19529082 0.1084949 -0.27774695 -0.03471837
-0.047737755 0.18661124 0.030378573 -0.21265 -0.08679592 -0.073776536 -0.38624185 -0.008679592
-0.18661124 0.08679592 0.06943674 -0.16057245 0.05641735 -0.37322247 -0.29510614 0.34718367
0.04339796 -0.026038777 -0.06943674 0.13019387 0.02169898 0.5511541 0.017359184 -0.06509694
0.07811633 -0.14755307 0.07811633 0.03471837 0.15189286 0.12585409 -0.08245613 -0.03471837
0.026038777 0.14321327 0.09113572 -0.29510614 0.02169898 -0.31680512 -0.12585409 0.15189286
