project/backend/fpga_complier/q_paras/conv_6.convs.0.weight.int.npy (npy, 28352 bytes, 1 tensors)

array i1 [56, 56, 3, 3]
00000000: 37d2 dafa d6f9 2bdc 241b e3db d368 2956
00000010: fc06 d8e8 220f 09bd eb34 d6e9 bed8 d282
00000020: dd31 c4ec ef16 1a3e 2efc c7c8 34d0 f953
00000030: d311 f312 fd39 0f0e e0cf c138 ea12 0512
00000040: 7326 46ce 1c0f def0 f2f1 f1da 2c06 eee6
00000050: 2de4 1206 f6d1 ff07 1afa 0d2c d9e5 09e9
00000060: befe 2921 18e6 fb05 d508 d7d0 3bb8 070a
00000070: e508 c9db 05bd e6fb dedf f310 c51a e733
00000080: 05ed e126 11eb 0b50 ccf9 b609 3c10 ec11
00000090: f712 e436 ea15 1ee8 fcdd 12d2 efc4 f4bb
000000a0: eed1 1c3b fff9 f3be f213 a6a0 57df 37ce
000000b0: dd31 dc21 04f6 8f10 d627 bef5 9209 1631
000000c0: d9d0 f2e7 fb0f 04e7 fa26 0bea e710 f9ef
000000d0: 5108 f913 08ed 0c9d df32 22e8 1343 fcf6
000000e0: 10e4 181b 2ee7 c7dc 0ef4 6502 1311 d8b6
000000f0: f1fe e2fd 2e1f 1711 eae9 fd08 f262 f93d
55 -46 -38 -6 -42 -7 43 -36
36 27 -29 -37 -45 104 41 86
-4 6 -40 -24 34 15 9 -67
-21 52 -42 -23 -66 -40 -46 -126
-35 49 -60 -20 -17 22 26 62
46 -4 -57 -56 52 -48 -7 83
-45 17 -13 18 -3 57 15 14
-32 -49 -63 56 -22 18 5 18
115 38 70 -50 28 15 -34 -16
-14 -15 -15 -38 44 6 -18 -26
45 -28 18 6 -10 -47 -1 7
26 -6 13 44 -39 -27 9 -23
-66 -2 41 33 24 -26 -5 5
-43 8 -41 -48 59 -72 7 10
-27 8 -55 -37 5 -67 -26 -5
-34 -33 -13 16 -59 26 -25 51
5 -19 -31 38 17 -21 11 80
-52 -7 -74 9 60 16 -20 17
-9 18 -28 54 -22 21 30 -24
-4 -35 18 -46 -17 -60 -12 -69
-18 -47 28 59 -1 -7 -13 -66
-14 19 -90 -96 87 -33 55 -50
-35 49 -36 33 4 -10 -113 16
-42 39 -66 -11 -110 9 22 49
-39 -48 -14 -25 -5 15 4 -25
-6 38 11 -22 -25 16 -7 -17
81 8 -7 19 8 -19 12 -99
-33 50 34 -24 19 67 -4 -10
16 -28 24 27 46 -25 -57 -36
14 -12 101 2 19 17 -40 -74
-15 -2 -30 -3 46 31 23 17
-22 -23 -3 8 -14 98 -7 61
