project/backend/fpga_complier/q_paras/conv_last.weight.int.npy (npy, 3128 bytes, 1 tensors)

array i1 [25, 120, 1, 1]
0	0xbd	-67
1	0xf7	-9
2	0xcb	-53
3	0xe2	-30
4	0xc5	-59
5	0xfc	-4
6	0xe4	-28
7	0xf1	-15
8	0xf0	-16
9	0xbb	-69
10	0x3a	58
11	0xce	-50
12	0x27	39
13	0x37	55
14	0xf4	-12
15	0x0e	14
16	0xd0	-48
17	0xe8	-24
18	0x04	4
19	0xf0	-16
20	0xf1	-15
21	0xbf	-65
22	0x0a	10
23	0xff	-1
24	0x35	53
25	0x22	34
26	0x12	18
27	0x19	25
28	0x12	18
29	0x36	54
30	0xd5	-43
31	0x37	55
32	0x36	54
33	0x0b	11
34	0x0a	10
35	0xf5	-11
36	0xcc	-52
37	0x01	1
38	0x16	22
39	0xc4	-60
40	0x18	24
41	0xc2	-62
42	0x12	18
43	0x37	55
44	0xe4	-28
45	0x00	0
46	0xfc	-4
47	0xf5	-11
48	0xff	-1
49	0xe1	-31
50	0x39	57
51	0x24	36
52	0xf2	-14
53	0xe1	-31
54	0xc6	-58
55	0xf6	-10
56	0xbb	-69
57	0x3e	62
58	0xf2	-14
59	0xf3	-13
60	0xf6	-10
61	0x35	53
62	0x0d	13
63	0x0e	14
64	0xf9	-7
65	0xee	-18
66	0xbd	-67
67	0xed	-19
68	0x4a	74
69	0xec	-20
70	0x27	39
71	0x02	2
72	0xc2	-62
73	0xbd	-67
74	0x01	1
75	0x17	23
76	0x02	2
77	0x19	25
78	0x09	9
79	0x58	88
80	0xfd	-3
81	0x08	8
82	0xf6	-10
83	0x3a	58
84	0xf0	-16
85	0xed	-19
86	0xc6	-58
87	0x23	35
88	0xf4	-12
89	0x37	55
90	0x07	7
91	0x27	39
92	0x04	4
93	0x2c	44
94	0x29	41
95	0x67	103
96	0x47	71
97	0xd4	-44
98	0x1b	27
99	0xb3	-77
100	0xe1	-31
101	0xeb	-21
102	0x19	25
103	0x6b	107
104	0x00	0
105	0xdd	-35
106	0xfa	-6
107	0x27	39
108	0xd5	-43
109	0xde	-34
110	0x7f	127
111	0x38	56
112	0x4b	75
113	0x11	17
114	0xd8	-40
115	0xe7	-25
116	0xe3	-29
117	0x51	81
118	0xfb	-5
119	0xfb	-5
120	0xe7	-25
121	0xf1	-15
122	0x2f	47
123	0x4d	77
124	0xca	-54
125	0x05	5
126	0x09	9
127	0xec	-20
128	0xf4	-12
129	0xe8	-24
130	0xef	-17
131	0xf2	-14
132	0xf7	-9
133	0x0b	11
134	0x1c	28
135	0xe4	-28
136	0xe2	-30
137	0x09	9
138	0x9f	-97
139	0xae	-82
140	0x10	16
141	0x36	54
142	0x1c	28
143	0xcc	-52
144	0x7f	127
145	0x10	16
146	0x1f	31
147	0x15	21
148	0x90	-112
149	0x17	23
150	0xff	-1
151	0x55	85
152	0xfb	-5
153	0x14	20
154	0xf4	-12
155	0x0b	11
156	0xf1	-15
157	0xcb	-53
158	0xd2	-46
159	0xdc	-36
160	0xfa	-6
161	0x4d	77
162	0xda	-38
163	0xd7	-41
164	0xda	-38
165	0xe5	-27
166	0x04	4
167	0xfa	-6
168	0x31	49
169	0xff	-1
170	0x1d	29
171	0xb7	-73
172	0xf4	-12
173	0xf9	-7
174	0xf5	-11
175	0x04	4
176	0xe2	-30
177	0x11	17
178	0xe7	-25
179	0x35	53
180	0xd9	-39
181	0xf0	-16
182	0xdf	-33
183	0x52	82
184	0xb3	-77
185	0xd9	-39
186	0x1a	26
187	0xf2	-14
188	0xff	-1
189	0x03	3
190	0xe2	-30
191	0xda	-38
192	0xd5	-43
193	0x14	20
194	0x21	33
195	0x2c	44
196	0xc9	-55
197	0xe3	-29
198	0xf9	-7
199	0x04	4
200	0x3e	62
201	0x01	1
202	0x04	4
203	0x27	39
204	0x4f	79
205	0x04	4
206	0x0c	12
207	0x3a	58
208	0xd0	-48
209	0x0d	13
210	0x08	8
211	0xe3	-29
212	0xc3	-61
213	0x24	36
214	0x41	65
215	0x2d	45
216	0x29	41
217	0x10	16
218	0xf4	-12
219	0x38	56
220	0xd7	-41
221	0xfe	-2
222	0xfb	-5
223	0x02	2
224	0xed	-19
225	0xf9	-7
226	0xe2	-30
227	0xdf	-33
228	0x39	57
229	0xdb	-37
230	0x12	18
231	0xed	-19
232	0xe5	-27
233	0xfa	-6
234	0xf7	-9
235	0x21	33
236	0xee	-18
237	0xcd	-51
238	0x91	-111
239	0x1b	27
240	0xdb	-37
241	0x67	103
242	0x2e	46
243	0x21	33
244	0x16	22
245	0xd8	-40
246	0xe6	-26
247	0x66	102
248	0xf4	-12
249	0x28	40
250	0x06	6
251	0xc7	-57
252	0xcd	-51
253	0xe3	-29
254	0x4a	74
255	0xec	-20
