project/backend/fpga_complier/q_paras/conv_2.convs.0.weight.int.npy (npy, 4736 bytes, 1 tensors)

array i1 [32, 16, 3, 3]
32 35 1 7 -14 -54 -35 26
10 -33 -3 0 -15 -13 -26 -53
39 24 -5 -40 3 -34 19 -2
11 18 -7 -11 31 -9 -2 4
18 -39 -25 -88 1 -5 3 -43
73 -19 11 14 25 40 50 17
49 29 -18 10 -38 56 -43 -60
-57 46 -23 -73 19 45 6 -35
-9 -23 19 -11 9 8 -21 -15
2 22 -12 30 1 -69 -12 16
-28 -30 -34 -18 -49 -43 7 49
-39 1 -61 -3 -40 11 34 -54
-128 23 43 20 -26 -51 -61 -2
-15 16 4 -28 38 -5 18 -5
-1 51 -6 -23 -20 -49 -27 37
12 7 -9 56 8 16 -13 -40
36 48 4 48 23 32 -124 3
-86 7 -38 74 -16 57 27 -3
22 -62 11 -61 -77 76 -55 -8
4 -110 -11 -29 51 -6 0 32
-16 -35 50 43 19 -44 84 27
22 -17 -85 56 33 -25 -36 -7
47 29 -18 -11 -39 -9 53 33
23 -17 57 -20 23 -96 -4 9
39 26 -6 47 28 -22 -3 36
4 63 23 -15 5 3 40 -99
3 -4 -39 41 -34 -34 -73 -35
-11 41 45 -33 1 38 -20 43
35 0 -43 36 38 35 -55 53
-1 -55 0 -9 -23 -42 48 39
-19 -78 -10 -22 -6 -42 -9 33
35 -45 22 13 -39 45 24 54
00000000: 2023 0107 f2ca dd1a 0adf fd00 f1f3 e6cb
00000010: 2718 fbd8 03de 13fe 0b12 f9f5 1ff7 fe04
00000020: 12d9 e7a8 01fb 03d5 49ed 0b0e 1928 3211
00000030: 311d ee0a da38 d5c4 c72e e9b7 132d 06dd
00000040: f7e9 13f5 0908 ebf1 0216 f41e 01bb f410
00000050: e4e2 deee cfd5 0731 d901 c3fd d80b 22ca
00000060: 8017 2b14 e6cd c3fe f110 04e4 26fb 12fb
00000070: ff33 fae9 eccf e525 0c07 f738 0810 f3d8
00000080: 2430 0430 1720 8403 aa07 da4a f039 1bfd
00000090: 16c2 0bc3 b34c c9f8 0492 f5e3 33fa 0020
000000a0: f0dd 322b 13d4 541b 16ef ab38 21e7 dcf9
000000b0: 2f1d eef5 d9f7 3521 17ef 39ec 17a0 fc09
000000c0: 271a fa2f 1cea fd24 043f 17f1 0503 289d
000000d0: 03fc d929 dede b7dd f529 2ddf 0126 ec2b
000000e0: 2300 d524 2623 c935 ffc9 00f7 e9d6 3027
000000f0: edb2 f6ea fad6 f721 23d3 160d d92d 1836
